movenet_image_processor/android/src/main/assets/bicep_curls_float16.tflite (tflite, 139512 bytes, 17 tensors)

arith.constant42 f2 [1, 17, 1]
0	0x0000	0.0
1	0x0000	0.0
2	0x0000	0.0
3	0x0000	0.0
4	0x0000	0.0
5	0x3c00	1.0
6	0x3c00	1.0
7	0x3c00	1.0
8	0x3c00	1.0
9	0x3c00	1.0
10	0x3c00	1.0
11	0x3c00	1.0
12	0x3c00	1.0
13	0x0000	0.0
14	0x0000	0.0
15	0x0000	0.0
16	0x0000	0.0

arith.constant45 f2 [17, 2]
0	0x0000	0.0
1	0x0000	0.0
2	0x0000	0.0
3	0x0000	0.0
4	0x0000	0.0
5	0x0000	0.0
6	0x0000	0.0
7	0x0000	0.0
8	0x0000	0.0
9	0x0000	0.0
10	0x3c00	1.0
11	0x3c00	1.0
12	0x3c00	1.0
13	0x3c00	1.0
14	0x3c00	1.0
15	0x0000	0.0
16	0x3c00	1.0
17	0x0000	0.0
18	0x0000	0.0
19	0x0000	0.0
20	0x0000	0.0
21	0x0000	0.0
22	0x0000	0.0
23	0x3c00	1.0
24	0x0000	0.0
25	0x3c00	1.0
26	0x0000	0.0
27	0x0000	0.0
28	0x0000	0.0
29	0x0000	0.0
30	0x0000	0.0
31	0x0000	0.0
32	0x0000	0.0
33	0x0000	0.0

arith.constant46 f2 [32, 2]
0	0xb46e	-0.2769
1	0xb17d	-0.1715
2	0xac77	-0.06976
3	0xb204	-0.188
4	0xae8f	-0.1025
5	0xacc6	-0.0746
6	0xa89b	-0.03598
7	0xb583	-0.3445
8	0x3465	0.2747
9	0x34d3	0.3015
10	0xb833	-0.525
11	0x37a2	0.477
12	0x333f	0.2264
13	0x2d0a	0.07874
14	0x34a9	0.2913
15	0x34ec	0.3076
16	0xb511	-0.3167
17	0x34a2	0.2896
18	0x30f1	0.1544
19	0xaab0	-0.05225
20	0xb34f	-0.2284
21	0x3353	0.2289
22	0x3112	0.1584
23	0x2d5f	0.0839
24	0x35ec	0.37
25	0xaff0	-0.124
26	0xafef	-0.12396
27	0xa2f8	-0.01361
28	0xb56a	-0.3384
29	0x3570	0.3398
30	0xb423	-0.2585
31	0x33b9	0.2413
32	0x3593	0.3484
33	0x31cf	0.1815
34	0xb1ae	-0.1775
35	0xabc2	-0.0606
36	0x3550	0.332
37	0x3340	0.2266
38	0x9654	-0.001545
39	0xb19f	-0.1757
40	0x34f3	0.3093
41	0x321e	0.1912
42	0x353f	0.328
43	0x35b1	0.3557
44	0xb517	-0.318
45	0x1a4e	0.003078
46	0xb44d	-0.2688
47	0x34a7	0.2908
48	0xb23b	-0.1947
49	0xaaae	-0.0522
50	0x3535	0.3254
51	0xaa52	-0.04938
52	0x35fb	0.3738
53	0xad53	-0.0832
54	0x347a	0.2798
55	0x3434	0.2627
56	0x3446	0.267
57	0x30f4	0.1548
58	0x2e94	0.1028
59	0xb46e	-0.2769
60	0xb42b	-0.2605
61	0xb4c7	-0.2986
62	0xb7b8	-0.4824
63	0x3599	0.3499

arith.constant47 f2 [32, 128]
0	0xa9d4	-0.04553
1	0xb28d	-0.2047
2	0x33be	0.242
3	0xb3d4	-0.2446
4	0x1541	0.001283
5	0xb1a9	-0.1769
6	0xae00	-0.09375
7	0xa2d1	-0.01331
8	0xacce	-0.0751
9	0xaae7	-0.05392
10	0x32d1	0.213
11	0x2ca7	0.0727
12	0xb006	-0.1257
13	0xb372	-0.2327
14	0xb1e3	-0.184
15	0xa8e3	-0.03818
16	0xa95e	-0.04193
17	0x2fe2	0.12317
18	0xaa9d	-0.05167
19	0xb100	-0.1562
20	0xb13b	-0.1635
21	0x2ca9	0.0728
22	0x1627	0.001502
23	0x316e	0.1697
24	0x30d3	0.1508
25	0xae39	-0.0972
26	0x3122	0.1604
27	0x3139	0.1632
28	0x316f	0.1698
29	0x25a7	0.02208
30	0x3027	0.1298
31	0x2d67	0.0844
32	0xb17a	-0.1711
33	0xac77	-0.06976
34	0xa8f4	-0.0387
35	0xb0bb	-0.1478
36	0x2e6e	0.10046
37	0x2ef4	0.10864
38	0x1ac1	0.003298
39	0xb244	-0.1958
40	0xb254	-0.1978
41	0x2c2f	0.06537
42	0xaded	-0.0926
43	0xae8b	-0.10223
44	0x3253	0.1976
45	0xb278	-0.2021
46	0x2d36	0.0814
47	0xad92	-0.08704
48	0x33cc	0.2437
49	0xb12f	-0.162
50	0xad8c	-0.0867
51	0xb1bc	-0.1792
52	0xad99	-0.08746
53	0x2efb	0.1091
54	0x3172	0.1702
55	0x3233	0.1937
56	0x338a	0.2356
57	0x2c3b	0.0661
58	0xb056	-0.1355
59	0xad56	-0.0834
60	0x31d0	0.1816
61	0xb08c	-0.1421
62	0xae93	-0.1027
63	0xb216	-0.1902
64	0xb293	-0.2054
65	0x2eae	0.1044
66	0x2f8a	0.1178
67	0x30e1	0.1525
68	0x30d3	0.1508
69	0xa0ac	-0.009125
70	0xaa4a	-0.04913
71	0x2c16	0.06384
72	0x3272	0.2014
73	0x2ea4	0.10376
74	0x9e31	-0.006046
75	0x2f5c	0.115
76	0xad1f	-0.08
77	0xb0f9	-0.1554
78	0x2f5f	0.1152
79	0x3117	0.159
80	0x3121	0.1603
81	0x3019	0.128
82	0x2a1b	0.0477
83	0xad38	-0.08154
84	0x2be0	0.06152
85	0xb29c	-0.2065
86	0x308c	0.1421
87	0xa048	-0.00836
88	0x289b	0.03598
89	0xb22c	-0.1929
90	0x2d10	0.0791
91	0xb249	-0.1964
92	0xae63	-0.0998
93	0x2f91	0.1182
94	0x316b	0.1693
95	0x245a	0.017
96	0xb183	-0.1722
97	0x327c	0.2026
98	0xac87	-0.07074
99	0x1faf	0.007504
100	0x24c3	0.0186
101	0x30d1	0.1505
102	0x3012	0.1272
103	0x3089	0.1417
104	0x3031	0.131
105	0x91d8	-0.0007133
106	0xb046	-0.1335
107	0xb266	-0.2
108	0x2aac	0.05212
109	0xadae	-0.08875
110	0xa881	-0.0352
111	0x2a07	0.0471
112	0x306e	0.1384
113	0xaeba	-0.1051
114	0xad2c	-0.0808
115	0xb114	-0.1587
116	0xac75	-0.06964
117	0xae76	-0.10095
118	0xb19d	-0.1754
119	0x2fdb	0.12274
120	0x3052	0.135
121	0xb06b	-0.1381
122	0x30a6	0.1453
123	0xb1e1	-0.1837
124	0x2fc3	0.1213
125	0xa9de	-0.04584
126	0x2d36	0.0814
127	0x1a0e	0.002956
128	0xaf10	-0.11035
129	0xb1fa	-0.1868
130	0x91d9	-0.000714
131	0x2858	0.03394
132	0xb1d9	-0.1827
133	0xaede	-0.1073
134	0xb160	-0.168
135	0x3130	0.1621
136	0x9a60	-0.003113
137	0x2e81	0.1016
138	0xb1b8	-0.1787
139	0x2fea	0.12366
140	0xacf8	-0.07764
141	0x30ed	0.1539
142	0x2f7c	0.11694
143	0xaea3	-0.1037
144	0x2567	0.0211
145	0xb188	-0.1729
146	0xb202	-0.1877
147	0x2e07	0.0942
148	0xad2b	-0.08075
149	0xb171	-0.17
150	0xb20f	-0.1893
151	0xa998	-0.0437
152	0x31c2	0.1799
153	0xabc8	-0.0608
154	0x307e	0.1404
155	0xb006	-0.1257
156	0x2c5d	0.0682
157	0x2c0e	0.06335
158	0xb069	-0.1378
159	0xae42	-0.0978
160	0xacc2	-0.07434
161	0xa568	-0.02112
162	0xaafe	-0.05463
163	0xb050	-0.1348
164	0x262f	0.02415
165	0xae39	-0.0972
166	0x3169	0.1691
167	0xadef	-0.0927
168	0xa273	-0.012596
169	0xb089	-0.1417
170	0xaf31	-0.11237
171	0xa5c6	-0.02255
172	0xb0a7	-0.1454
173	0xb0d1	-0.1505
174	0xa7ce	-0.03049
175	0x2a03	0.04697
176	0x3052	0.135
177	0xae9b	-0.1032
178	0xade8	-0.0923
179	0x2653	0.0247
180	0x31c6	0.1804
181	0xae72	-0.1007
182	0xae32	-0.0968
183	0xad3e	-0.0819
184	0xb138	-0.1631
185	0x3017	0.1278
186	0xa9d8	-0.04565
187	0xb214	-0.19
188	0x3169	0.1691
189	0xac29	-0.065
190	0x2f97	0.1186
191	0x2c91	0.07135
192	0x3049	0.1339
193	0xacb5	-0.07355
194	0xaeb7	-0.1049
195	0xb13b	-0.1635
196	0xa4be	-0.01852
197	0xaeea	-0.10803
198	0xaa3f	-0.0488
199	0xb1d7	-0.1825
200	0x2865	0.03433
201	0xabb1	-0.0601
202	0x28f5	0.03873
203	0xaaa4	-0.05188
204	0xaf3e	-0.11316
205	0xac81	-0.0704
206	0x2ef9	0.10895
207	0xb07c	-0.1401
208	0xb20b	-0.1888
209	0x317f	0.1718
210	0x2491	0.01784
211	0x2cd9	0.07574
212	0xa64c	-0.0246
213	0x9d52	-0.005196
214	0x2c79	0.0699
215	0xb0ba	-0.1477
216	0xaef8	-0.1089
217	0xb1d2	-0.1819
218	0xaf6f	-0.11615
219	0xaeb0	-0.1045
220	0x280b	0.0316
221	0xa46b	-0.01726
222	0xb140	-0.1641
223	0xad28	-0.08057
224	0x31f2	0.1858
225	0xb21a	-0.1907
226	0xacb7	-0.07367
227	0xa89c	-0.036
228	0xae6c	-0.10034
229	0xb1eb	-0.1849
230	0x3047	0.1337
231	0x2d0b	0.0788
232	0xace0	-0.0762
233	0xa599	-0.02187
234	0x2ef5	0.1087
235	0x30bc	0.148
236	0x2f2a	0.11194
237	0xaf6c	-0.11597
238	0x305b	0.1361
239	0xa3e9	-0.01545
240	0x29e9	0.04617
241	0xa9dc	-0.04578
242	0x3051	0.1349
243	0x2cbf	0.07416
244	0xa877	-0.03488
245	0x29d5	0.04556
246	0xad0b	-0.0788
247	0x2e3b	0.09735
248	0x30ee	0.154
249	0xaf25	-0.11163
250	0xb136	-0.1628
251	0x2c69	0.0689
252	0xab71	-0.05814
253	0x2f1f	0.11127
254	0x2d62	0.0841
255	0xb131	-0.1622

arith.constant48 f2 [48, 64]
0	0x30a5	0.1451
1	0x2865	0.03433
2	0xb255	-0.1979
3	0x2f7b	0.1169
4	0x33c0	0.2422
5	0xb190	-0.1738
6	0x2636	0.02426
7	0x321c	0.1909
8	0x2c74	0.0696
9	0xb139	-0.1632
10	0x2db6	0.08923
11	0x34aa	0.2915
12	0x33ad	0.2399
13	0xb5dc	-0.3662
14	0xb273	-0.2015
15	0xaae5	-0.05386
16	0x3040	0.1328
17	0xb53d	-0.3274
18	0xab7a	-0.0584
19	0x2f27	0.11176
20	0xa7af	-0.03001
21	0x30ee	0.154
22	0x301a	0.1282
23	0xac11	-0.06354
24	0xad7d	-0.08575
25	0x3279	0.2023
26	0xb293	-0.2054
27	0xac9e	-0.07214
28	0xaf4a	-0.1139
29	0xb5ad	-0.3547
30	0x2534	0.02032
31	0x3165	0.1686
32	0xb0e8	-0.1533
33	0x2d13	0.0793
34	0x3301	0.2189
35	0xaab2	-0.0523
36	0x3277	0.202
37	0xb4f3	-0.3093
38	0xaedd	-0.10724
39	0x2ee9	0.108
40	0x2c23	0.06464
41	0x31dd	0.1832
42	0xb540	-0.3281
43	0xaf42	-0.1134
44	0x30ef	0.1542
45	0xb10a	-0.1575
46	0xaf19	-0.1109
47	0xb328	-0.2236
48	0x31a6	0.1765
49	0x3223	0.1918
50	0x3402	0.2505
51	0xb0ea	-0.1536
52	0x30d5	0.151
53	0xa739	-0.02821
54	0xb142	-0.1643
55	0xb4d0	-0.3008
56	0x2e7f	0.1015
57	0xad24	-0.0803
58	0x2cb4	0.0735
59	0xad4d	-0.0828
60	0x2c1a	0.0641
61	0x2315	0.01383
62	0xb128	-0.1611
63	0xb636	-0.3882
64	0x34b1	0.2932
65	0xaf9c	-0.1189
66	0x2c00	0.0625
67	0x31bf	0.1796
68	0xb151	-0.1661
69	0xb026	-0.1296
70	0xb033	-0.1312
71	0xb4da	-0.3032
72	0x96a1	-0.001618
73	0x340e	0.2534
74	0x300b	0.1263
75	0xb408	-0.252
76	0xb2f5	-0.2174
77	0xb075	-0.1393
78	0xaada	-0.05353
79	0x3020	0.1289
80	0x2eb2	0.1046
81	0x3210	0.1895
82	0x28e2	0.03815
83	0xb294	-0.2056
84	0x3411	0.2542
85	0xa48c	-0.01776
86	0x307d	0.1403
87	0xac96	-0.07166
88	0xb1aa	-0.177
89	0xac38	-0.0659
90	0x3358	0.2295
91	0x2e70	0.1006
92	0xa921	-0.04007
93	0xb08d	-0.1422
94	0xad48	-0.0825
95	0x3109	0.1573
96	0x2ee4	0.10767
97	0x319f	0.1757
98	0xa9dc	-0.04578
99	0xb121	-0.1603
100	0xb3f1	-0.2482
101	0x2f67	0.11566
102	0xad08	-0.0786
103	0x25d8	0.02283
104	0xada9	-0.08844
105	0xaf23	-0.1115
106	0x3262	0.1995
107	0x305f	0.1366
108	0x310c	0.1577
109	0x333f	0.2264
110	0x21c2	0.011246
111	0x2b4b	0.05698
112	0x24b9	0.01845
113	0x2e59	0.0992
114	0x2d9d	0.0877
115	0xa3ed	-0.01548
116	0x2a96	0.05145
117	0xadd2	-0.09094
118	0x3106	0.157
119	0x3248	0.1963
120	0x30fa	0.1555
121	0x2beb	0.06186
122	0xb25d	-0.1989
123	0xb3f6	-0.2488
124	0xb3c6	-0.2429
125	0x311d	0.1598
126	0xa66d	-0.0251
127	0x2ec4	0.1057
128	0xb586	-0.3452
129	0xb0b6	-0.1472
130	0x9fd3	-0.00764
131	0x2eca	0.1061
132	0x330e	0.2205
133	0xa552	-0.02078
134	0x3209	0.1886
135	0xa49a	-0.01797
136	0x123d	0.0007615
137	0xa51d	-0.01997
138	0x307c	0.1401
139	0x30f2	0.1545
140	0x3239	0.1945
141	0xaff0	-0.124
142	0xae65	-0.0999
143	0xae8d	-0.10236
144	0xa64c	-0.0246
145	0xb2bf	-0.2108
146	0x3405	0.2512
147	0x2492	0.01785
148	0xb471	-0.2776
149	0x32fa	0.218
150	0xb19c	-0.1753
151	0x2e64	0.09985
152	0xb15f	-0.1678
153	0xb2ae	-0.2087
154	0xb48b	-0.284
155	0x2f8c	0.1179
156	0x2c23	0.06464
157	0xb57e	-0.3433
158	0x32a8	0.208
159	0x2ba6	0.05975
160	0x3360	0.2305
161	0xb138	-0.1631
162	0x2fa2	0.11926
163	0xa91f	-0.04
164	0xad04	-0.07837
165	0xacf9	-0.0777
166	0x2b0f	0.05515
167	0x3017	0.1278
168	0xa48d	-0.01778
169	0x1c63	0.004284
170	0xb1d0	-0.1816
171	0x3350	0.2285
172	0x2c0b	0.0632
173	0x3243	0.1957
174	0xb7d6	-0.4897
175	0xa057	-0.00848
176	0x3520	0.3203
177	0x2fae	0.12
178	0xa99a	-0.04376
179	0xa803	-0.03134
180	0x340f	0.2537
181	0x3227	0.1923
182	0x322f	0.1932
183	0xb03c	-0.1323
184	0x2aac	0.05212
185	0xac5f	-0.0683
186	0xa16b	-0.01058
187	0xb027	-0.1298
188	0x30e5	0.153
189	0xa697	-0.02574
190	0xae53	-0.0988
191	0xb46d	-0.2766
192	0x3398	0.2373
193	0xb2d4	-0.2134
194	0x29de	0.04584
195	0xa91b	-0.0399
196	0xae69	-0.10016
197	0x32ea	0.2161
198	0xad52	-0.0831
199	0xb151	-0.1661
200	0xb35f	-0.2303
201	0x29b4	0.04456
202	0xacf9	-0.0777
203	0x3088	0.1416
204	0xb3c8	-0.2432
205	0x21aa	0.01106
206	0xb3f8	-0.249
207	0x31ef	0.1854
208	0xacee	-0.077
209	0x28b7	0.03683
210	0x25eb	0.02312
211	0xb119	-0.1593
212	0xb3b7	-0.2411
213	0x259e	0.02194
214	0xb078	-0.1396
215	0x31b6	0.1785
216	0xb1de	-0.1833
217	0xb368	-0.2314
218	0x30ac	0.146
219	0xaf55	-0.11456
220	0x2e83	0.10175
221	0xaf77	-0.11664
222	0xaff6	-0.1244
223	0x2cea	0.0768
224	0x1a4c	0.003075
225	0xa82f	-0.03268
226	0xa58c	-0.02167
227	0x232b	0.014
228	0x29c1	0.04495
229	0x3464	0.2744
230	0x313e	0.1638
231	0x2ff8	0.1245
232	0x12c1	0.0008245
233	0x30de	0.1521
234	0x33e5	0.2467
235	0x32d4	0.2134
236	0x330d	0.2203
237	0xadce	-0.0907
238	0xa828	-0.03247
239	0xb036	-0.1316
240	0x32ba	0.2102
241	0xac58	-0.0679
242	0x270b	0.02751
243	0x1232	0.0007563
244	0xafc0	-0.1211
245	0x2fc5	0.1214
246	0xb0c9	-0.1495
247	0x2ed2	0.10657
248	0x2f5f	0.1152
249	0x2211	0.01185
250	0x32a5	0.2076
251	0x2ebe	0.10535
252	0xafc5	-0.1214
253	0x3111	0.1583
254	0x31c2	0.1799
255	0x3348	0.2275

arith.constant49 f2 [24, 48]
0	0xaeb2	-0.1046
1	0xa93e	-0.04095
2	0x1bb5	0.003763
3	0x35ec	0.37
4	0xabb6	-0.06024
5	0xb53e	-0.3276
6	0xb4e6	-0.3062
7	0xaf92	-0.1183
8	0xb35d	-0.2301
9	0xacee	-0.077
10	0xb4e7	-0.3064
11	0x3364	0.231
12	0xa7c6	-0.03036
13	0xa515	-0.01985
14	0xb0a6	-0.1453
15	0x324d	0.1969
16	0x3188	0.1729
17	0xad0b	-0.0788
18	0xb392	-0.2366
19	0x21a2	0.011
20	0xa813	-0.03183
21	0x294a	0.04132
22	0xa4e3	-0.01909
23	0x2c8a	0.0709
24	0x351a	0.3188
25	0xb0a0	-0.1445
26	0xb501	-0.3127
27	0x34b6	0.2944
28	0x2e38	0.09717
29	0x33b2	0.2405
30	0x313c	0.1636
31	0x265f	0.02489
32	0xb406	-0.2515
33	0x32ff	0.2186
34	0xa4a1	-0.01808
35	0xa998	-0.0437
36	0x2dd0	0.0908
37	0x2ef4	0.10864
38	0x2da3	0.0881
39	0xa9a5	-0.0441
40	0x34e4	0.3057
41	0xb4b2	-0.2935
42	0x2d4a	0.08264
43	0xb08f	-0.1425
44	0x91be	-0.000701
45	0x22a2	0.012955
46	0xb42e	-0.2612
47	0xb1b0	-0.1777
48	0x334b	0.2279
49	0xb24d	-0.1969
50	0x3560	0.336
51	0xaa4a	-0.04913
52	0xb426	-0.2593
53	0x3478	0.2793
54	0x3030	0.1309
55	0xb051	-0.1349
56	0xaa97	-0.05148
57	0x3500	0.3125
58	0x2e01	0.0938
59	0xb456	-0.271
60	0x37ef	0.4958
61	0x0960	0.000164
62	0x295b	0.04184
63	0xaab4	-0.05237
64	0x3125	0.1608
65	0x2790	0.02954
66	0x2eb8	0.105
67	0x2ec4	0.1057
68	0xb350	-0.2285
69	0xb175	-0.1705
70	0x351d	0.3196
71	0x2f7f	0.1171
72	0xb380	-0.2344
73	0x3622	0.3833
74	0xa851	-0.03372
75	0x2c9c	0.072
76	0x359c	0.3506
77	0x2814	0.03186
78	0xb4df	-0.3044
79	0x2600	0.02344
80	0x2b55	0.05728
81	0x9ce7	-0.004787
82	0xb1ac	-0.1772
83	0x2d1f	0.08
84	0xaf2c	-0.11206
85	0xb1b1	-0.1779
86	0xb441	-0.2659
87	0x37b2	0.481
88	0xaf60	-0.11523
89	0x3605	0.3762
90	0x990f	-0.00247
91	0x2d51	0.08307
92	0x33ef	0.2479
93	0x29c7	0.04514
94	0x3326	0.2234
95	0x37a5	0.4778
96	0x34e2	0.3052
97	0xb135	-0.1627
98	0x33a4	0.2388
99	0xa75c	-0.02875
100	0x2aec	0.05408
101	0x218a	0.01082
102	0x345a	0.272
103	0xb02f	-0.1307
104	0x369b	0.4128
105	0x340d	0.2532
106	0x3379	0.2335
107	0xaf5e	-0.1151
108	0x33eb	0.2474
109	0xb4a1	-0.2893
110	0xb276	-0.2019
111	0x2bf3	0.0621
112	0xb493	-0.286
113	0xb4f5	-0.3098
114	0x3515	0.3176
115	0x2db8	0.08936
116	0x31d2	0.1819
117	0x2d85	0.08624
118	0x3746	0.4546
119	0x2cca	0.0748
120	0xb275	-0.2018
121	0x3191	0.174
122	0x35b4	0.3564
123	0xac46	-0.0668
124	0x3495	0.2864
125	0xb292	-0.2053
126	0xb3c9	-0.2433
127	0xa60a	-0.02359
128	0x3514	0.3174
129	0xb5bc	-0.3584
130	0xb5a2	-0.352
131	0x2d65	0.0843
132	0x30d0	0.1504
133	0xab30	-0.05615
134	0x2ad9	0.0535
135	0x3592	0.3481
136	0xa78a	-0.02945
137	0xb0cd	-0.15
138	0xb052	-0.135
139	0x32a9	0.2081
140	0xab58	-0.05737
141	0x32f4	0.2173
142	0x2d2c	0.0808
143	0x3834	0.5254
144	0x3822	0.5166
145	0xaa86	-0.05096
146	0x3268	0.2002
147	0xadf2	-0.0929
148	0x2a36	0.04852
149	0x376a	0.4634
150	0x37e7	0.494
151	0xb12e	-0.1619
152	0x34e8	0.3066
153	0x362c	0.3857
154	0x352a	0.3228
155	0x2e54	0.0989
156	0x311d	0.1598
157	0xb573	-0.3406
158	0x278a	0.02945
159	0x320d	0.1891
160	0xb21e	-0.1912
161	0xb408	-0.252
162	0x34b7	0.2947
163	0xb26c	-0.2007
164	0xa767	-0.02892
165	0xb496	-0.2866
166	0x2fbb	0.1208
167	0x33e6	0.2468
168	0xa997	-0.04367
169	0x37a1	0.4768
170	0x2988	0.0432
171	0xb51c	-0.3193
172	0x3635	0.388
173	0xb376	-0.2332
174	0x2c37	0.06586
175	0xaadf	-0.05368
176	0x38e3	0.611
177	0xb47b	-0.28
178	0xaeee	-0.1083
179	0x34fb	0.3113
180	0x2124	0.01004
181	0x2f0a	0.11
182	0xb1f3	-0.1859
183	0x3830	0.5234
184	0x2ef4	0.10864
185	0x2ddf	0.09174
186	0xb0ab	-0.1459
187	0x3667	0.4001
188	0x3501	0.3127
189	0x373c	0.4521
190	0x3012	0.1272
191	0x365e	0.398
192	0xb481	-0.2815
193	0x355f	0.3357
194	0xa56c	-0.02118
195	0x31ec	0.185
196	0xa8cc	-0.03748
197	0xb552	-0.3325
198	0xb347	-0.2274
199	0x30ed	0.1539
200	0xafc0	-0.1211
201	0x22fb	0.01363
202	0x9f76	-0.007286
203	0x2c78	0.0698
204	0xb369	-0.2316
205	0xac16	-0.06384
206	0x307f	0.1405
207	0xb080	-0.1406
208	0xa99c	-0.04382
209	0x30e8	0.1533
210	0xb4c9	-0.299
211	0x34d9	0.303
212	0xb095	-0.1432
213	0x33ac	0.2397
214	0xb1d8	-0.1826
215	0x33b0	0.2402
216	0x3551	0.3323
217	0xb534	-0.3252
218	0xaea7	-0.10394
219	0xb0be	-0.1482
220	0x2e68	0.1001
221	0x344a	0.268
222	0x33bc	0.2417
223	0x2b72	0.05817
224	0x2e63	0.0998
225	0x37cd	0.4875
226	0x34b9	0.2952
227	0x28d4	0.03772
228	0x36a4	0.415
229	0x34dd	0.304
230	0xb003	-0.1254
231	0xad2e	-0.08093
232	0xb06f	-0.1385
233	0x30ac	0.146
234	0x30c8	0.1494
235	0xb2ff	-0.2186
236	0xb00b	-0.1263
237	0xa870	-0.03467
238	0xb2d1	-0.213
239	0xafe0	-0.12305
240	0x2cf4	0.0774
241	0xb346	-0.2273
242	0x3199	0.1749
243	0x32f9	0.2179
244	0x23e3	0.0154
245	0x388d	0.569
246	0x33e4	0.2466
247	0xa678	-0.02527
248	0x345f	0.2732
249	0x3537	0.326
250	0x2c14	0.0637
251	0x2a70	0.0503
252	0x2f90	0.11816
253	0xb18f	-0.1737
254	0x31dd	0.1832
255	0x360d	0.3782

arith.constant50 f2 [1, 24]
0	0x38c1	0.594
1	0xb9b1	-0.7114
2	0xb896	-0.573
3	0xb521	-0.3206
4	0x3540	0.3281
5	0xb6dc	-0.4287
6	0x34b0	0.293
7	0x35b0	0.3555
8	0xb792	-0.4731
9	0x3719	0.4436
10	0x38cb	0.599
11	0x37b7	0.4822
12	0x379f	0.4763
13	0x34a9	0.2913
14	0x3800	0.5
15	0x384d	0.5376
16	0xb6f5	-0.4348
17	0x37fe	0.4995
18	0x3577	0.3416
19	0x35fd	0.3743
20	0x34c4	0.2979
21	0x354f	0.3318
22	0xb7f2	-0.4966
23	0xb877	-0.558

arith.constant55 f2 [32]
0	0x0000	0.0
1	0x0000	0.0
2	0x0000	0.0
3	0x0000	0.0
4	0xa605	-0.02351
5	0x9284	-0.0007954
6	0xa1be	-0.011215
7	0xa816	-0.03192
8	0x294f	0.04147
9	0x1f7f	0.00732
10	0x1c9f	0.004513
11	0xa100	-0.009766
12	0x28f4	0.0387
13	0x0000	0.0
14	0x9229	-0.000752
15	0x1865	0.002146
16	0xa7ab	-0.02995
17	0x0000	0.0
18	0xa9d7	-0.04562
19	0x0000	0.0
20	0xae8e	-0.1024
21	0xa91f	-0.04
22	0x9f24	-0.006973
23	0x9abd	-0.00329
24	0x0000	0.0
25	0xabe2	-0.06158
26	0x2589	0.02162
27	0xa484	-0.01764
28	0xa77c	-0.02924
29	0x2645	0.02449
30	0x0000	0.0
31	0x921f	-0.000747

arith.constant56 f2 [32]
0	0x9a36	-0.003033
1	0x0000	0.0
2	0xa321	-0.01392
3	0x9d67	-0.005276
4	0xa56e	-0.02121
5	0x1c91	0.00446
6	0xa2e7	-0.01348
7	0x9e76	-0.00631
8	0xa1d2	-0.01137
9	0x96c0	-0.001648
10	0xa445	-0.01668
11	0x20b5	0.00919
12	0x1f9c	0.00743
13	0xa099	-0.00898
14	0x2098	0.00897
15	0xa0c5	-0.009315
16	0xa468	-0.01721
17	0x94d0	-0.001175
18	0x2035	0.00822
19	0xa1a3	-0.01101
20	0xa4b2	-0.01834
21	0xa05b	-0.00851
22	0x9d39	-0.0051
23	0xa77a	-0.0292
24	0xa7d8	-0.03064
25	0xa25b	-0.01241
26	0x8f41	-0.0004427
27	0xa020	-0.00806
28	0xa264	-0.01248
29	0x9e1a	-0.00596
30	0x2284	0.012726
31	0xa425	-0.01619

arith.constant57 f2 [48]
0	0x1971	0.002657
1	0x9b47	-0.003553
2	0x25dd	0.0229
3	0xa8cc	-0.03748
4	0xac10	-0.0635
5	0x27a0	0.02979
6	0xa6e2	-0.02689
7	0x138b	0.000921
8	0xa652	-0.02469
9	0xa8b6	-0.0368
10	0xa106	-0.00981
11	0xa25b	-0.01241
12	0xa1d5	-0.01139
13	0x2649	0.02455
14	0xa859	-0.03397
15	0x284e	0.03363
16	0x22e6	0.01347
17	0xa57e	-0.02145
18	0x26dd	0.02681
19	0x26f1	0.02711
20	0xaa0f	-0.04733
21	0xa54b	-0.02068
22	0x20a1	0.00904
23	0x29f6	0.04657
24	0xa808	-0.0315
25	0xa021	-0.008064
26	0x1f79	0.007298
27	0xa4b9	-0.01845
28	0xa816	-0.03192
29	0xa72e	-0.02805
30	0x2597	0.02184
31	0xa4ca	-0.0187
32	0xa50b	-0.0197
33	0x9f4e	-0.007133
34	0xa55a	-0.0209
35	0xa256	-0.012375
36	0xa3fe	-0.01561
37	0xa314	-0.013824
38	0xac95	-0.0716
39	0x1ced	0.00481
40	0xac06	-0.06287
41	0x8db2	-0.0003476
42	0xa2e2	-0.01344
43	0xa365	-0.01444
44	0x8c0d	-0.0002472
45	0x2886	0.03534
46	0x2341	0.01417
47	0x2470	0.01733

arith.constant58 f2 [24]
0	0x2dbb	0.08954
1	0x268f	0.02562
2	0x28b4	0.03674
3	0x2e03	0.09393
4	0x2cdd	0.076
5	0x2a05	0.04703
6	0x302f	0.1307
7	0x2dc6	0.0902
8	0x2bd4	0.06116
9	0x2d2d	0.0809
10	0x2c8e	0.07117
11	0x2de6	0.09216
12	0x2cd2	0.0753
13	0x2e7a	0.1012
14	0x2c0d	0.0633
15	0x2c46	0.0668
16	0x2c42	0.0665
17	0x2df7	0.0932
18	0x2df1	0.09283
19	0x2e7c	0.1013
20	0x2e80	0.10156
21	0x2f44	0.1135
22	0x20a0	0.00903
23	0x2881	0.0352

arith.constant59 f2 [64, 1, 3, 2]
0	0xb5cc	-0.3623
1	0xc45c	-4.36
2	0xbc02	-1.002
3	0x3bcb	0.974
4	0xb621	-0.383
5	0x3f65	1.849
6	0xbe68	-1.602
7	0xbbec	-0.99
8	0x3bd0	0.9766
9	0xc139	-2.611
10	0xbfc5	-1.942
11	0x3dc0	1.4375
12	0x3ca2	1.158
13	0x3af2	0.868
14	0x3a01	0.7505
15	0x2cf6	0.0775
16	0x3c87	1.132
17	0xb52c	-0.3232
18	0xb801	-0.5005
19	0x4105	2.51
20	0x4090	2.281
21	0x3fb1	1.923
22	0xb42f	-0.2615
23	0xc335	-3.604
24	0xbdb0	-1.422
25	0x3eba	1.682
26	0x3869	0.5513
27	0xb440	-0.2656
28	0xbe85	-1.63
29	0x3c14	1.02
30	0xbc7f	-1.124
31	0x3c78	1.117
32	0xbc5e	-1.092
33	0xb40f	-0.2537
34	0x3983	0.689
35	0xb8ef	-0.6167
36	0xaf5c	-0.115
37	0xbe2f	-1.546
38	0x3c80	1.125
39	0x3902	0.626
40	0x3ef6	1.74
41	0x38b9	0.5903
42	0xb53c	-0.3271
43	0xc275	-3.229
44	0xb077	-0.1395
45	0x41e8	2.953
46	0xbc53	-1.081
47	0xbeea	-1.729
48	0xbb3a	-0.9033
49	0x4247	3.139
50	0xbc39	-1.056
51	0x34c5	0.298
52	0x3167	0.1688
53	0xc231	-3.096
54	0xb872	-0.5557
55	0x373b	0.452
56	0x405b	2.178
57	0xb85d	-0.5454
58	0xc18a	-2.77
59	0x3428	0.2598
60	0xc09e	-2.309
61	0xbb0c	-0.881
62	0x4013	2.037
63	0xbe6f	-1.608
64	0x3847	0.5347
65	0x3fb6	1.928
66	0x334d	0.2281
67	0x3c9d	1.153
68	0x3e1c	1.527
69	0x366e	0.4019
70	0x3c7a	1.119
71	0xbd29	-1.29
72	0x3ba8	0.957
73	0x39eb	0.7397
74	0x372b	0.448
75	0xc262	-3.191
76	0x3978	0.6836
77	0xc169	-2.705
78	0x40d8	2.422
79	0x3d47	1.319
80	0xbc99	-1.149
81	0xbfc4	-1.941
82	0x3d4b	1.323
83	0x41ca	2.895
84	0x2ef3	0.1086
85	0xba3b	-0.779
86	0x37e0	0.4922
87	0x3ef8	1.742
88	0x4005	2.01
89	0xb73d	-0.4524
90	0xbd71	-1.36
91	0xc1c8	-2.89
92	0xb971	-0.68
93	0x3d79	1.368
94	0x3922	0.6416
95	0x3744	0.454
96	0x3daa	1.416
97	0xbe27	-1.538
98	0x3d28	1.289
99	0xbc77	-1.116
100	0xbe93	-1.644
101	0x411c	2.555
102	0x413d	2.62
103	0xb9e2	-0.7354
104	0xbcbf	-1.187
105	0xbcf6	-1.24
106	0xb9b5	-0.7134
107	0xbf34	-1.801
108	0xb5b7	-0.3572
109	0x4021	2.064
110	0xbfea	-1.979
111	0xbff8	-1.992
112	0x3e01	1.501
113	0x3fa6	1.912
114	0xba82	-0.8135
115	0xb5a3	-0.3523
116	0x3eb6	1.678
117	0x3e81	1.626
118	0x3d89	1.384
119	0x3d65	1.349
120	0xbf79	-1.868
121	0xaff6	-0.1244
122	0x3cd8	1.211
123	0xbc45	-1.067
124	0xc046	-2.137
125	0x3d67	1.351
126	0x31c3	0.18
127	0x2f44	0.1135
128	0x3c80	1.125
129	0x3c50	1.078
130	0x3c78	1.117
131	0x3e6b	1.6045
132	0x3b49	0.9106
133	0x3eff	1.749
134	0xbec9	-1.696
135	0xbd17	-1.272
136	0xba13	-0.7593
137	0xbf34	-1.801
138	0x3dfd	1.497
139	0x360c	0.378
140	0xc0bf	-2.373
141	0xb8d2	-0.6025
142	0xb63f	-0.3904
143	0x3f07	1.757
144	0xbcce	-1.201
145	0x369d	0.4133
146	0xb6d8	-0.4277
147	0x3225	0.192
148	0xbd5b	-1.339
149	0x2ae4	0.05383
150	0xbe53	-1.581
151	0xb95d	-0.6704
152	0x427b	3.24
153	0x301d	0.1285
154	0x2ed7	0.1069
155	0x41b3	2.85
156	0x352a	0.3228
157	0xc10d	-2.525
158	0xbd33	-1.3
159	0xbdea	-1.479
160	0xbd2c	-1.293
161	0x40cb	2.396
162	0x3fec	1.98
163	0x340a	0.2524
164	0xb5d5	-0.3645
165	0xc164	-2.695
166	0x3d5e	1.342
167	0x3318	0.2217
168	0xbc84	-1.129
169	0x3cac	1.168
170	0xb986	-0.6904
171	0xb3ec	-0.2476
172	0x4131	2.596
173	0x3f51	1.829
174	0x3ee6	1.725
175	0x3ca5	1.161
176	0xb9b0	-0.711
177	0xb825	-0.518
178	0xbd83	-1.378
179	0x3cbb	1.183
180	0x3d59	1.337
181	0xbbc6	-0.9717
182	0xb0de	-0.1521
183	0x389a	0.575
184	0x3ed1	1.704
185	0x40bc	2.367
186	0x3584	0.3447
187	0x2e8c	0.1023
188	0x3d5f	1.343
189	0x3d92	1.393
190	0x3a45	0.7837
191	0xc14e	-2.652
192	0x3681	0.4065
193	0xb83f	-0.531
194	0x4055	2.166
195	0xb73a	-0.4517
196	0x32b7	0.2098
197	0x3f91	1.892
198	0xbed3	-1.706
199	0xb6fd	-0.4368
200	0x2a3d	0.04874
201	0xbcb6	-1.178
202	0x3fe9	1.978
203	0x3e2e	1.545
204	0xa88e	-0.03558
205	0xbfc1	-1.938
206	0xb480	-0.2812
207	0xc1dd	-2.932
208	0x3da5	1.411
209	0xba43	-0.7827
210	0x3d68	1.352
211	0x40ad	2.338
212	0x3488	0.2832
213	0x3d91	1.392
214	0xbcee	-1.232
215	0x413f	2.623
216	0xba8e	-0.8193
217	0xbd52	-1.33
218	0xbf40	-1.8125
219	0x3b50	0.914
220	0x3ccd	1.2
221	0xb900	-0.625
222	0x4233	3.1
223	0x308b	0.142
224	0xbde1	-1.47
225	0x3c17	1.022
226	0x3875	0.557
227	0xb897	-0.5737
228	0xbce4	-1.223
229	0x3b0b	0.8804
230	0xbcda	-1.213
231	0xba8c	-0.8184
232	0x1a51	0.003084
233	0x3543	0.3289
234	0xb93a	-0.6533
235	0xbc89	-1.134
236	0xa699	-0.02577
237	0x448e	4.555
238	0x34e5	0.306
239	0xbcc2	-1.189
240	0x2431	0.01637
241	0xc2a1	-3.314
242	0xad1e	-0.07996
243	0xba67	-0.8003
244	0xbb44	-0.908
245	0x44d3	4.824
246	0x3a6d	0.803
247	0x3f77	1.866
248	0x3d50	1.328
249	0x3c84	1.129
250	0x37ca	0.4868
251	0xc122	-2.566
252	0x3d35	1.302
253	0x406d	2.213
254	0x3d14	1.27
255	0x3a72	0.8057

arith.constant60 f2 [64, 1, 5, 64]
0	0x24c5	0.01863
1	0x2e2d	0.0965
2	0x2ce2	0.0763
3	0x2963	0.04208
4	0x9d78	-0.00534
5	0x24f9	0.01942
6	0xa947	-0.04123
7	0x25c0	0.02246
8	0xaf3e	-0.11316
9	0xad89	-0.0865
10	0xa83c	-0.03308
11	0xa25f	-0.01244
12	0x2e7e	0.10144
13	0x20e2	0.00954
14	0x2b1c	0.05554
15	0xaf24	-0.1116
16	0x2c85	0.0706
17	0xa66b	-0.02507
18	0xa0c2	-0.00929
19	0x24a6	0.01816
20	0x28d5	0.03775
21	0xa5c6	-0.02255
22	0x288c	0.03552
23	0x2dc9	0.0904
24	0x2a23	0.04794
25	0xa2d6	-0.01335
26	0x2b6e	0.05804
27	0xa6d3	-0.02666
28	0xa92d	-0.04044
29	0x27e2	0.03079
30	0xae3e	-0.09753
31	0x2312	0.01381
32	0x2c6b	0.06903
33	0xadff	-0.0937
34	0x29b8	0.04468
35	0x20a6	0.00908
36	0x2881	0.0352
37	0x2a29	0.04813
38	0xaa19	-0.04764
39	0xafbe	-0.121
40	0x2052	0.00844
41	0xad01	-0.0782
42	0xaade	-0.05365
43	0xa868	-0.03442
44	0xaae7	-0.05392
45	0x2611	0.0237
46	0xaa12	-0.04742
47	0xabdc	-0.0614
48	0x2e1b	0.0954
49	0xa90d	-0.03946
50	0xae3f	-0.0976
51	0x2cfb	0.0778
52	0xa586	-0.02158
53	0xad57	-0.08344
54	0x2f6e	0.1161
55	0x2f21	0.1114
56	0xa6f7	-0.0272
57	0x228b	0.01278
58	0xa81d	-0.03214
59	0xace3	-0.07635
60	0xaac1	-0.05276
61	0xad59	-0.08356
62	0x258f	0.02171
63	0x2c2d	0.06525
64	0x300f	0.1268
65	0xa61a	-0.02383
66	0xac0b	-0.0632
67	0xae48	-0.09814
68	0xacab	-0.07294
69	0xa769	-0.02895
70	0xaee0	-0.1074
71	0x2ae3	0.0538
72	0xaf03	-0.10956
73	0xa6b1	-0.02614
74	0x2da2	0.088
75	0xaa72	-0.05035
76	0xa04b	-0.008385
77	0x2409	0.01576
78	0xa737	-0.02818
79	0x2f2d	0.1121
80	0xabfe	-0.06244
81	0x2ae4	0.05383
82	0xaec5	-0.1058
83	0xa9af	-0.0444
84	0xaca2	-0.0724
85	0x2a6b	0.05014
86	0x26b8	0.02625
87	0x246a	0.01724
88	0x2a01	0.0469
89	0xb06b	-0.1381
90	0x2bde	0.06146
91	0xacb2	-0.07336
92	0x210e	0.00987
93	0x2e57	0.09906
94	0xa65e	-0.02487
95	0xaf66	-0.1156
96	0x2b3f	0.0566
97	0xad0b	-0.0788
98	0x2f60	0.11523
99	0xa89d	-0.03604
100	0x2f2a	0.11194
101	0x260e	0.02365
102	0x21ba	0.011185
103	0x2844	0.03333
104	0x2a6a	0.0501
105	0xa5c4	-0.02252
106	0x3038	0.1318
107	0xb097	-0.1434
108	0xaf67	-0.11566
109	0x1f4d	0.00713
110	0xabe9	-0.0618
111	0xa09d	-0.00901
112	0xb0fe	-0.156
113	0xa562	-0.02103
114	0xaf7d	-0.117
115	0xa71c	-0.02777
116	0x302d	0.1305
117	0xa5b6	-0.02231
118	0x2574	0.0213
119	0x2150	0.010376
120	0xa519	-0.01991
121	0x2c0b	0.0632
122	0xad93	-0.0871
123	0xad15	-0.0794
124	0x283e	0.03314
125	0xa967	-0.0422
126	0xabcf	-0.061
127	0x2d21	0.08014
128	0xac72	-0.06946
129	0x2dd4	0.09106
130	0x2e80	0.10156
131	0xab0a	-0.055
132	0x221b	0.011925
133	0xa72c	-0.02802
134	0x2be7	0.06174
135	0xaaea	-0.05402
136	0xac29	-0.065
137	0x3024	0.1294
138	0x3029	0.13
139	0x2dae	0.08875
140	0x2822	0.0323
141	0xade4	-0.09204
142	0x286d	0.03458
143	0xaec1	-0.1055
144	0xae93	-0.1027
145	0x2af3	0.0543
146	0xa9f1	-0.04642
147	0xa9c1	-0.04495
148	0x2b00	0.0547
149	0xa8fb	-0.0389
150	0x2cfe	0.078
151	0xab34	-0.05627
152	0x2c70	0.06934
153	0x2917	0.03976
154	0xae3f	-0.0976
155	0xafb6	-0.1205
156	0x305f	0.1366
157	0xaf1d	-0.11115
158	0xb0d0	-0.1504
159	0xae0e	-0.0946
160	0xab7d	-0.0585
161	0xa64d	-0.02461
162	0x2c8d	0.0711
163	0xa352	-0.0143
164	0x9df5	-0.005817
165	0x2b76	0.0583
166	0x2a1b	0.0477
167	0xa4e0	-0.01904
168	0xac10	-0.0635
169	0x299d	0.04385
170	0x1f3a	0.007057
171	0x2a72	0.05035
172	0x2c82	0.07043
173	0x2b66	0.0578
174	0xad44	-0.0823
175	0xb207	-0.1884
176	0xac76	-0.0697
177	0x2ef2	0.1085
178	0x2465	0.01717
179	0x2eda	0.10706
180	0x2ac4	0.05286
181	0xac2e	-0.0653
182	0xac6d	-0.06915
183	0x26fb	0.02727
184	0xac96	-0.07166
185	0xa810	-0.03174
186	0x2e11	0.0948
187	0x9e9e	-0.006462
188	0xac8f	-0.0712
189	0xad61	-0.08405
190	0x2a1a	0.04767
191	0x9d86	-0.005394
192	0x294f	0.04147
193	0x2307	0.013725
194	0xa59e	-0.02194
195	0xa515	-0.01985
196	0x288c	0.03552
197	0xa8a3	-0.03622
198	0x2a27	0.04807
199	0x2a63	0.0499
200	0xaada	-0.05353
201	0x3056	0.1355
202	0xa638	-0.02429
203	0xa7c1	-0.03029
204	0x2a6a	0.0501
205	0x305e	0.1365
206	0xaea2	-0.10364
207	0x2985	0.04312
208	0xa8f0	-0.03857
209	0x2dff	0.0937
210	0xa4ef	-0.01927
211	0x2a7a	0.0506
212	0x2078	0.00873
213	0xacf4	-0.0774
214	0x30ae	0.1462
215	0xa298	-0.01288
216	0x1199	0.0006833
217	0x9cdf	-0.004757
218	0xa666	-0.025
219	0xadb9	-0.0894
220	0xa284	-0.012726
221	0xaa10	-0.04736
222	0x94e9	-0.001199
223	0x29c1	0.04495
224	0xa23c	-0.01218
225	0xaf32	-0.1124
226	0x2408	0.01575
227	0x2d41	0.0821
228	0x29ea	0.0462
229	0x2a7c	0.05066
230	0x21df	0.01147
231	0x9db4	-0.00557
232	0x2d7f	0.0859
233	0xa7ea	-0.03091
234	0x2a7d	0.0507
235	0x304a	0.134
236	0x2ea8	0.104
237	0xa69c	-0.02582
238	0x2adb	0.05356
239	0xad02	-0.07825
240	0xaa96	-0.05145
241	0xa5ed	-0.02315
242	0x2d58	0.0835
243	0xab13	-0.05527
244	0x266e	0.02512
245	0xab1b	-0.0555
246	0x977e	-0.001829
247	0x2cd5	0.0755
248	0xaaf0	-0.0542
249	0x1fb3	0.00752
250	0x22dd	0.013405
251	0x2a2f	0.0483
252	0x2e20	0.0957
253	0xad99	-0.08746
254	0x2ab7	0.05246
255	0x2f0e	0.1102

arith.constant61 f2 [128, 1, 3, 64]
0	0xb448	-0.2676
1	0xa96b	-0.04233
2	0xaf9e	-0.119
3	0x3002	0.1252
4	0x331e	0.2224
5	0x2bf7	0.06223
6	0xaebf	-0.1054
7	0x20ec	0.00961
8	0xaae6	-0.0539
9	0xabad	-0.05997
10	0x2b6a	0.05792
11	0x325a	0.1985
12	0xaa44	-0.04895
13	0x317d	0.1715
14	0xaffc	-0.12476
15	0xb110	-0.1582
16	0x2d93	0.0871
17	0x2d35	0.08136
18	0xac61	-0.0684
19	0xb1d1	-0.1818
20	0x25af	0.0222
21	0x2984	0.0431
22	0xb375	-0.233
23	0x2eae	0.1044
24	0x30b3	0.1469
25	0xa800	-0.03125
26	0x28c6	0.0373
27	0x26a0	0.02588
28	0x2a0b	0.0472
29	0xb442	-0.266
30	0xae5b	-0.0993
31	0x2ddd	0.0916
32	0x301c	0.1284
33	0xb01a	-0.1282
34	0xb02d	-0.1305
35	0xb11e	-0.1599
36	0xb599	-0.3499
37	0x24f4	0.01935
38	0xadff	-0.0937
39	0x34e1	0.305
40	0xaade	-0.05365
41	0x2ab3	0.05234
42	0x2244	0.01224
43	0xb3d7	-0.245
44	0xb50d	-0.3157
45	0xa981	-0.043
46	0xb119	-0.1593
47	0x343a	0.2642
48	0xb0e6	-0.1531
49	0x2e4e	0.0985
50	0x345d	0.2727
51	0xa735	-0.02815
52	0xb2cd	-0.2125
53	0x27d3	0.03056
54	0xb41b	-0.2566
55	0xb0a7	-0.1454
56	0x28c3	0.0372
57	0x30e7	0.1532
58	0xb0c2	-0.1487
59	0x2869	0.03445
60	0x2b80	0.0586
61	0x9cb7	-0.004604
62	0xa593	-0.02177
63	0x3567	0.3376
64	0xae7c	-0.1013
65	0x2e3b	0.09735
66	0xb686	-0.4077
67	0x31df	0.1835
68	0x2bef	0.06198
69	0xb51f	-0.32
70	0x3489	0.2834
71	0xaff3	-0.1242
72	0x33ae	0.24
73	0xab32	-0.0562
74	0xb11a	-0.1594
75	0x29d3	0.0455
76	0x2dff	0.0937
77	0xa610	-0.02368
78	0x2e02	0.0939
79	0x2d7b	0.08563
80	0xa668	-0.02502
81	0x94e3	-0.001193
82	0x319d	0.1754
83	0x9789	-0.00184
84	0x3368	0.2314
85	0xace7	-0.0766
86	0xacdf	-0.0761
87	0x2d41	0.0821
88	0xb4a1	-0.2893
89	0x2b04	0.0548
90	0xacf8	-0.07764
91	0x31df	0.1835
92	0x2d4e	0.0829
93	0xae44	-0.0979
94	0xb3b4	-0.2407
95	0xb178	-0.1709
96	0xae7a	-0.1012
97	0xb07c	-0.1401
98	0x2efe	0.10925
99	0xb112	-0.1584
100	0xb345	-0.2272
101	0xa81e	-0.03217
102	0xac58	-0.0679
103	0x303d	0.1324
104	0x26f3	0.02715
105	0x156d	0.001325
106	0xa962	-0.04205
107	0xb333	-0.225
108	0x30c4	0.1489
109	0xac80	-0.0703
110	0xa2dc	-0.0134
111	0x29ab	0.04428
112	0xad9e	-0.08777
113	0x35a5	0.3528
114	0xa89d	-0.03604
115	0xb0bb	-0.1478
116	0xb3ee	-0.2478
117	0xb0c7	-0.1493
118	0xb257	-0.1981
119	0xb47f	-0.281
120	0x3299	0.2062
121	0xa4f9	-0.01942
122	0xab50	-0.05713
123	0xb224	-0.1919
124	0x2606	0.02353
125	0xb0bc	-0.148
126	0xb20f	-0.1893
127	0x27fd	0.0312
128	0x351b	0.319
129	0x2fb6	0.1205
130	0xac78	-0.0698
131	0xa762	-0.02884
132	0x2f4c	0.114
133	0xaca0	-0.07227
134	0x33d6	0.2449
135	0xa994	-0.04358
136	0x2855	0.03384
137	0xa768	-0.02893
138	0x23c2	0.01515
139	0xaec8	-0.10596
140	0xb2ff	-0.2186
141	0xabc3	-0.06064
142	0xa8c8	-0.03735
143	0xb2dc	-0.2144
144	0xb5a4	-0.3525
145	0x3328	0.2236
146	0x2c99	0.07184
147	0xa5ea	-0.0231
148	0x3361	0.2306
149	0xa936	-0.0407
150	0xb035	-0.1315
151	0xadaa	-0.0885
152	0xafb6	-0.1205
153	0x3110	0.1582
154	0x2c99	0.07184
155	0x2ff6	0.1244
156	0xb2b8	-0.21
157	0xad77	-0.0854
158	0xb496	-0.2866
159	0x2cd0	0.0752
160	0xb324	-0.2231
161	0x2acc	0.0531
162	0x2e65	0.0999
163	0x318a	0.1731
164	0x3026	0.1296
165	0x2e7e	0.10144
166	0xb2c8	-0.2119
167	0x2efa	0.109
168	0xb3de	-0.2458
169	0xa060	-0.008545
170	0x2748	0.02844
171	0xb293	-0.2054
172	0x3052	0.135
173	0xb4ca	-0.2993
174	0x330e	0.2205
175	0xaed1	-0.1065
176	0xb0dc	-0.1519
177	0x3131	0.1622
178	0x2ddd	0.0916
179	0xb4da	-0.3032
180	0x2a16	0.04755
181	0xadbc	-0.0896
182	0x33b9	0.2413
183	0x2682	0.02542
184	0xb08c	-0.1421
185	0xb411	-0.2542
186	0xa2b8	-0.01312
187	0xa864	-0.0343
188	0x2584	0.02155
189	0x2fff	0.12494
190	0x3277	0.202
191	0x2dae	0.08875
192	0x2c06	0.06287
193	0xa972	-0.04254
194	0x2e96	0.1029
195	0x3243	0.1957
196	0xa4bf	-0.01854
197	0x30c2	0.1487
198	0xaf3a	-0.1129
199	0xa1fc	-0.01169
200	0x3390	0.2363
201	0x3239	0.1945
202	0x297b	0.04282
203	0x2993	0.04355
204	0x2cc8	0.0747
205	0x259f	0.02196
206	0x2652	0.02469
207	0x2e63	0.0998
208	0x975d	-0.001798
209	0x1edb	0.006695
210	0x3183	0.1722
211	0xab4b	-0.05698
212	0x2b82	0.05865
213	0x2aae	0.0522
214	0xb1ad	-0.1774
215	0xab99	-0.05936
216	0xabe3	-0.0616
217	0xb2d9	-0.214
218	0xa454	-0.0169
219	0xab77	-0.05832
220	0xaa48	-0.04907
221	0xaceb	-0.07684
222	0x2aeb	0.05405
223	0x2eeb	0.1081
224	0xabad	-0.05997
225	0x21a9	0.011055
226	0x258b	0.02165
227	0xb38a	-0.2356
228	0x2bbb	0.0604
229	0x2fde	0.1229
230	0x252f	0.02025
231	0xad28	-0.08057
232	0x2871	0.0347
233	0xae50	-0.09863
234	0xb040	-0.1328
235	0xa623	-0.02397
236	0x308a	0.1418
237	0xb1bc	-0.1792
238	0xa64a	-0.02457
239	0x2c1a	0.0641
240	0xb271	-0.2013
241	0xa8be	-0.03705
242	0xaeb2	-0.1046
243	0x329f	0.2069
244	0x2d52	0.0831
245	0xacb8	-0.0737
246	0xae66	-0.1
247	0xb19d	-0.1754
248	0x2de9	0.09235
249	0xa585	-0.02156
250	0xac0a	-0.0631
251	0xae14	-0.095
252	0xaf89	-0.11774
253	0x32af	0.2089
254	0x30cd	0.15
255	0xa547	-0.02061

arith.constant62 f2 [64]
0	0xb553	-0.3328
1	0xb8fe	-0.624
2	0x37f9	0.4983
3	0x34cb	0.2996
4	0xb96c	-0.6777
5	0xb73f	-0.453
6	0x3793	0.4734
7	0xb753	-0.4578
8	0xb5e8	-0.3691
9	0xb42e	-0.2612
10	0xa9e4	-0.04602
11	0x380e	0.507
12	0x3692	0.4106
13	0x3701	0.4377
14	0x3623	0.3835
15	0xb7a7	-0.4783
16	0x30bd	0.1481
17	0x2bd3	0.06113
18	0xb374	-0.2329
19	0x35bf	0.3591
20	0xb952	-0.665
21	0x35e4	0.3682
22	0xb70f	-0.4412
23	0xb622	-0.3833
24	0xb9d7	-0.73
25	0x34f6	0.31
26	0xb6ba	-0.4204
27	0x37d1	0.4885
28	0x2966	0.04218
29	0xb1b2	-0.178
30	0x3714	0.4424
31	0x356e	0.3394
32	0x3734	0.4502
33	0x0d01	0.0003054
34	0x2b3a	0.05646
35	0xa273	-0.012596
36	0xb4cd	-0.3
37	0x36bf	0.4216
38	0xb906	-0.628
39	0xad8a	-0.08655
40	0xb4d3	-0.3015
41	0x3722	0.4458
42	0x33b6	0.241
43	0xb86c	-0.5527
44	0xb5ac	-0.3545
45	0x349d	0.2883
46	0xb95f	-0.6714
47	0xb364	-0.231
48	0xb02a	-0.1301
49	0xb587	-0.3455
50	0xb4af	-0.2927
51	0x3579	0.342
52	0x32e7	0.2157
53	0xb7c9	-0.4866
54	0xb143	-0.1644
55	0x3597	0.3494
56	0xb57d	-0.343
57	0x12d5	0.000834
58	0xb730	-0.4492
59	0xba35	-0.776
60	0x32d7	0.2137
61	0x3562	0.3364
62	0x36b5	0.4192
63	0x37a0	0.4766

arith.constant63 f2 [64]
0	0xb475	-0.2786
1	0x33e5	0.2467
2	0x2ff9	0.1246
3	0x3c4f	1.077
4	0xbbc7	-0.972
5	0x360e	0.3784
6	0x306e	0.1384
7	0x32ea	0.2161
8	0x383e	0.5303
9	0xa4ff	-0.01952
10	0x3bfe	0.999
11	0x3d52	1.33
12	0x3856	0.542
13	0x3dec	1.48
14	0x3023	0.1293
15	0xb64b	-0.3933
16	0xb4ec	-0.3076
17	0x3c16	1.021
18	0x3d04	1.254
19	0x3366	0.2312
20	0x3c9d	1.153
21	0xb7e5	-0.4934
22	0x30c8	0.1494
23	0x3e89	1.634
24	0x3c45	1.067
25	0x39ad	0.7095
26	0x3381	0.2345
27	0xad7b	-0.08563
28	0x3634	0.3877
29	0x309c	0.144
30	0xbd71	-1.36
31	0x320d	0.1891
32	0x3962	0.673
33	0x3f16	1.771
34	0xb838	-0.5273
35	0xbee8	-1.727
36	0x2c91	0.07135
37	0x3d27	1.288
38	0x37d1	0.4885
39	0x3851	0.5396
40	0x198c	0.002708
41	0x32d1	0.213
42	0x3861	0.5474
43	0x39b4	0.713
44	0x3b16	0.8857
45	0xbc90	-1.141
46	0x376f	0.4646
47	0x3dda	1.463
48	0x335b	0.2299
49	0x404e	2.152
50	0x3e84	1.629
51	0x3370	0.2324
52	0x2cf7	0.0776
53	0xbb67	-0.9253
54	0xa6b1	-0.02614
55	0x324c	0.1968
56	0x368e	0.4097
57	0x3bb7	0.9644
58	0x3902	0.626
59	0x38f0	0.617
60	0x37c2	0.4849
61	0x391c	0.6387
62	0x3e0b	1.511
63	0x35ec	0.37

arith.constant64 f2 [128]
0	0x3bdc	0.9824
1	0x38b8	0.59
2	0xbf10	-1.766
3	0xbd71	-1.36
4	0xbb9c	-0.951
5	0x2ec6	0.10583
6	0xc001	-2.002
7	0x3cac	1.168
8	0xba57	-0.7925
9	0xbd59	-1.337
10	0x3607	0.3767
11	0xbcb1	-1.173
12	0xbb7b	-0.935
13	0x3e55	1.583
14	0x3d43	1.315
15	0x3a76	0.8076
16	0x34b2	0.2935
17	0xb320	-0.2227
18	0xbb7b	-0.935
19	0x332a	0.2239
20	0x3c16	1.021
21	0xbc48	-1.07
22	0x3918	0.6367
23	0xb9cc	-0.7246
24	0xc01c	-2.055
25	0xbc91	-1.142
26	0x3c69	1.103
27	0xb5c4	-0.3604
28	0xbd61	-1.345
29	0xbcc3	-1.19
30	0xbc1f	-1.03
31	0x38d5	0.604
32	0xa757	-0.02867
33	0xb165	-0.1686
34	0xaa52	-0.04938
35	0x3ace	0.8506
36	0x3e07	1.507
37	0x3710	0.4414
38	0x3a9b	0.8257
39	0xba76	-0.8076
40	0x3a02	0.751
41	0x35dd	0.3665
42	0x38d8	0.6055
43	0x320a	0.1887
44	0xbf91	-1.892
45	0x3f88	1.883
46	0x3b89	0.942
47	0xb95a	-0.669
48	0x3475	0.2786
49	0xb4c1	-0.297
50	0x3ce6	1.225
51	0x3d6a	1.354
52	0x23bc	0.01511
53	0xbbc0	-0.9688
54	0xbaf9	-0.8716
55	0x399d	0.7017
56	0xbee5	-1.724
57	0xb7b4	-0.4814
58	0xbbc0	-0.9688
59	0x38d5	0.604
60	0x33e3	0.2465
61	0x3563	0.3367
62	0x3e67	1.601
63	0x1d9a	0.00547
64	0x31a1	0.1759
65	0xbdb1	-1.423
66	0x3a8f	0.82
67	0x38be	0.593
68	0x3d46	1.318
69	0xb85b	-0.5444
70	0x3675	0.4036
71	0x3b1b	0.888
72	0xc015	-2.041
73	0x3866	0.55
74	0xb5fc	-0.374
75	0x3771	0.465
76	0x39af	0.7104
77	0xba23	-0.767
78	0x3406	0.2515
79	0x39ef	0.7417
80	0xbdc2	-1.439
81	0xbc71	-1.11
82	0xbe61	-1.595
83	0xb828	-0.5195
84	0x1a6a	0.003132
85	0x4045	2.135
86	0x4050	2.156
87	0x3e60	1.594
88	0xba85	-0.815
89	0x3c47	1.069
90	0xb37d	-0.234
91	0x3637	0.3884
92	0xbc6b	-1.1045
93	0xb859	-0.5435
94	0xbbd3	-0.978
95	0xb868	-0.551
96	0xb768	-0.463
97	0x3c7b	1.12
98	0x2b5b	0.05746
99	0x395e	0.671
100	0xb948	-0.66
101	0x2cf5	0.07745
102	0xbac6	-0.8467
103	0x3d47	1.319
104	0xb85e	-0.546
105	0x391f	0.64
106	0xbdae	-1.42
107	0x3744	0.454
108	0x31c7	0.1805
109	0xbe90	-1.641
110	0xbd5e	-1.342
111	0xba42	-0.782
112	0xbd81	-1.376
113	0xafc4	-0.12134
114	0x3c2b	1.042
115	0xb53c	-0.3271
116	0xbbb6	-0.964
117	0x3e5a	1.588
118	0x3c85	1.13
119	0xaa51	-0.04935
120	0xb5fa	-0.3735
121	0xbb88	-0.9414
122	0x3f43	1.815
123	0xae17	-0.09515
124	0x385a	0.544
125	0x3ef3	1.737
126	0xbc32	-1.049
127	0x2cad	0.07306
