movenet_image_processor/android/src/main/assets/overhead_presses_float16.tflite (tflite, 137056 bytes, 17 tensors)

arith.constant44 f2 [1, 17, 1]
0.0 0.0 0.0 0.0 0.0 1.0 1.0 1.0
1.0 1.0 1.0 1.0 1.0 0.0 0.0 0.0
0.0
00000000: 0000 0000 0000 0000 0000 003c 003c 003c
00000010: 003c 003c 003c 003c 003c 0000 0000 0000
00000020: 0000

arith.constant47 f2 [17, 2]
0.0 0.0 0.0 0.0 0.0 0.0 0.0 0.0
0.0 0.0 0.0 1.0 0.0 1.0 1.0 1.0
1.0 1.0 1.0 1.0 1.0 1.0 0.0 0.0
0.0 0.0 0.0 0.0 0.0 0.0 0.0 0.0
0.0 0.0
00000000: 0000 0000 0000 0000 0000 0000 0000 0000
00000010: 0000 0000 0000 003c 0000 003c 003c 003c
00000020: 003c 003c 003c 003c 003c 003c 0000 0000
00000030: 0000 0000 0000 0000 0000 0000 0000 0000
00000040: 0000 0000

arith.constant48 f2 [32, 2]
0.0752 0.3694 0.4575 -0.06323 -0.3452 0.3604 -0.4893 0.4028
0.204 0.1575 0.2937 0.062 0.09454 0.2042 -0.385 0.4243
-0.1731 -0.3027 0.3225 -0.2888 0.335 -0.4834 -0.3135 0.2727
0.3945 0.137 0.1538 -0.239 0.03238 0.3035 -0.3718 0.05322
0.1993 0.3013 -0.319 -0.365 -0.03275 -0.3777 0.4194 -0.06256
0.4553 0.2056 0.2091 -0.314 -0.1299 0.2957 0.2898 -0.00681
-0.445 0.2737 -0.1864 0.1235 0.1399 -0.11 -0.01125 -0.1077
0.3928 -0.494 -0.1055 -0.2494 -0.357 -0.3484 -0.368 -0.1442
00000000: d02c e935 5237 0cac 86b5 c435 d4b7 7236
00000010: 8732 0a31 b334 f02b 0d2e 8932 29b6 ca36
00000020: 8ab1 d8b4 2935 9fb4 5c35 bcb7 04b5 5d34
00000030: 5036 6230 ec30 a6b3 2528 db34 f3b5 d02a
00000040: 6132 d234 1bb5 d7b5 31a8 0bb6 b636 01ac
00000050: 4937 9432 b132 06b5 28b0 bb34 a334 f99e
00000060: 1fb7 6134 f7b1 e72f 7a30 0aaf c3a1 e5ae
00000070: 4936 e7b7 c1ae fbb3 b6b5 93b5 e3b5 9db0

arith.constant49 f2 [32, 128]
-0.1897 0.1318 0.0995 0.1841 0.141 0.1577 0.0529 0.0941
-0.11 -0.1735 0.1556 -0.2612 0.0869 -0.1685 -0.182 0.0947
0.11743 -0.12067 0.1637 -0.1824 0.104 -0.1833 0.10297 0.08514
0.002987 -0.1852 0.1414 -0.10876 -0.02667 0.09863 0.143 -0.1606
0.0902 -0.01918 0.1831 0.0826 -0.2007 -0.09094 0.1425 0.0934
-0.1265 0.0663 0.0726 -0.05078 -0.09235 0.1766 0.01741 -0.06964
-0.1406 0.02618 -0.1776 -0.03119 -0.01602 0.1915 -0.1678 -0.1103
-0.2625 -0.066 0.1179 -0.08124 0.1309 -0.1699 0.03958 -0.1425
-0.1597 0.003609 0.05743 -0.2258 -0.0307 0.09155 0.08417 0.0944
0.06976 -0.0722 0.06793 -0.00645 0.11664 0.0379 0.08295 0.05753
0.1443 -0.1593 0.1392 -0.1609 -0.1431 -0.0874 -0.1225 0.06805
0.05463 -0.2595 -0.171 -0.0237 -0.02156 0.1056 0.0564 -0.0709
0.1153 -0.01973 -0.1555 -0.1034 -0.02496 0.093 0.2037 0.1929
-0.1486 0.1276 -0.1753 0.1183 -0.12164 -0.10474 -0.154 -0.07874
0.1764 0.04025 -0.02692 0.0526 -0.02066 0.0966 -0.1713 -0.2057
-0.1359 -0.155 -0.215 0.08417 -0.054 0.01666 0.0866 0.0707
0.0323 0.1665 -0.06143 -0.1414 0.05682 0.1134 -0.02966 -0.1329
-0.1086 0.1598 -0.1946 -0.11127 -0.04834 -0.01073 0.1945 0.02274
-0.1567 -0.06726 -0.0711 -0.02208 -0.1603 0.0754 0.1561 -0.1603
0.10364 -0.065 -0.04376 0.135 0.088 -0.2015 -0.1615 0.1901
-0.03748 -0.1719 -0.01064 0.06384 0.0989 0.17 0.0693 -0.09106
0.0969 -0.1466 -0.05692 0.0576 0.1467 -0.1266 0.09845 0.1445
0.1697 0.0676 -0.1586 -0.2046 0.1456 0.0964 -0.117 0.0388
0.03165 -0.1371 0.05338 0.203 0.1908 0.1677 -0.2151 0.1054
-0.10175 -0.2174 0.004177 0.01804 -0.04477 0.0492 0.1423 0.1254
-0.1898 0.1494 0.10547 -0.1284 0.196 0.08185 -0.09875 0.07965
0.1372 0.1155 -0.01413 0.09827 -0.045 0.2002 0.10547 0.1348
-0.1 0.1802 0.2067 -0.2163 0.0808 -0.1918 0.05533 -0.05276
-0.08997 -0.01714 0.1042 -0.2133 0.1569 -0.1564 -0.0675 -0.0344
0.1224 -0.0324 0.1606 0.04614 -0.2114 -0.07605 0.119 -0.0347
0.03004 0.1572 0.09125 -0.08136 0.1589 -0.09735 0.11176 -0.10986
0.01949 -0.2324 0.03802 -0.1471 0.0319 0.1215 0.00607 -0.192
00000000: 12b2 3830 5e2e e431 8330 0c31 c52a 062e
00000010: 0aaf 8db1 fb30 2eb4 902d 64b1 d3b1 102e
00000020: 842f b9af 3d31 d6b1 a82e deb1 972e 732d
00000030: 1e1a edb1 8630 f6ae d4a6 502e 9330 24b1
00000040: c62d e9a4 dc31 492d 6cb2 d2ad 8f30 fa2d
00000050: 0cb0 3e2c a52c 80aa e9ad a731 7524 75ac
00000060: 80b0 b426 afb1 fca7 1aa4 2132 5fb1 0faf
00000070: 33b4 39ac 8c2f 33ad 3030 70b1 1129 8fb0
00000080: 1cb1 641b 5a2b 3ab3 dca7 dc2d 632d 0b2e
00000090: 772c 9fac 592c 9b9e 772f da28 4f2d 5d2b
000000a0: 9e30 19b1 7430 26b1 94b0 98ad d7af 5b2c
000000b0: fe2a 27b4 79b1 11a6 85a5 c22e 382b 8aac
000000c0: 612f 0da5 fab0 9eae 64a6 f42d 8532 2c32
000000d0: c1b0 1530 9cb1 922f c9af b4ae eeb0 0aad
000000e0: a531 2729 e4a6 bc2a 4aa5 2f2e 7bb1 95b2
000000f0: 59b0 f6b0 e1b2 632d e9aa 4424 8b2d 862c
00000100: 2228 5431 ddab 86b0 462b 422f 98a7 41b0
00000110: f3ae 1d31 3ab2 1faf 30aa 7ea1 3932 d225
00000120: 04b1 4eac 8dac a7a5 21b1 d32c ff30 21b1
00000130: a22e 29ac 9aa9 5230 a22d 73b2 2bb1 1532
00000140: cca8 80b1 73a1 162c 542e 7131 6f2c d4ad
00000150: 342e b1b0 49ab 5f2b b230 0db0 4d2e a030
00000160: 6e31 542c 13b1 8cb2 a930 2b2e 7daf f728
00000170: 0d28 63b0 d52a 7f32 1b32 5e31 e2b2 bf2e
00000180: 83ae f5b2 471c 9e24 bba9 4c2a 8e30 0330
00000190: 13b2 c830 c02e 1cb0 4632 3d2d 52ae 192d
000001a0: 6430 642f 3ca3 4a2e c3a9 6832 c02e 5030
000001b0: 66ae c431 9d32 ecb2 2c2d 23b2 152b c1aa
000001c0: c2ad 63a4 ab2e d3b2 0531 01b1 52ac 67a8
000001d0: d52f 26a8 2431 e829 c4b2 deac 9e2f 71a8
000001e0: b127 0831 d72d 35ad 1631 3bae 272f 08af
000001f0: fd24 70b3 de28 b5b0 1528 c72f 371e 25b2

arith.constant50 f2 [48, 64]
-0.0327 -0.1142 -0.1725 0.1445 0.1614 -0.0944 0.1469 0.005142
-0.06696 -0.107 0.3254 -0.0895 -0.04062 0.2832 0.2075 0.2109
0.277 0.226 -0.03775 0.04727 0.03894 0.176 0.1853 0.2085
0.1959 0.07355 -0.1744 -0.1188 -0.011894 0.199 0.0134 -0.1043
-0.1854 0.0298 -0.0738 0.02545 -0.0978 0.3171 0.2029 -0.1959
-0.2057 -0.12396 -0.0551 0.12024 -0.1318 -0.01213 0.03146 -0.0598
-0.0835 -0.01585 -0.1598 0.0558 0.2021 0.2443 0.0847 0.057
0.1511 -0.04654 0.2603 0.1558 0.2979 -0.1647 -0.0919 -0.2223
0.1073 -0.2598 -0.02594 0.05893 -0.1813 0.0812 0.1942 -0.1809
-0.10175 -0.0198 -0.0882 0.0421 0.0786 0.0788 0.00823 0.02263
0.0682 -0.1387 0.1242 0.001515 0.1134 0.005226 0.1296 -0.1654
0.2141 0.1164 0.0935 0.2554 0.00782 0.1598 0.1409 -0.0331
0.2192 -0.198 -0.09247 -0.1075 -0.0152 0.1738 0.2673 0.10834
0.02715 0.00969 -0.2043 0.015 0.006325 -0.2457 0.2512 0.165
-0.0827 -0.1549 0.01863 -0.00951 -0.1986 -0.1033 -0.1177 0.05283
0.2566 -0.0373 -0.2142 0.195 -0.2217 -0.0904 0.0007854 0.2194
0.00842 -0.2167 0.0986 -0.2131 -0.01505 -0.2224 0.007057 -0.2181
0.0713 -0.11115 -0.1054 -0.08044 -0.07275 0.1556 -0.03378 -0.12054
-0.01918 0.01007 -0.0344 -0.1355 0.2423 -0.02791 -0.1523 -0.3179
0.06052 0.011795 0.1926 -0.03928 -0.01162 0.07324 0.1517 0.1674
0.1159 -0.1786 0.2345 0.10077 -0.0977 -0.01051 -0.04257 -0.02643
0.0953 0.1327 -0.08966 -0.1023 -0.1812 -0.2404 0.2054 0.2394
-0.073 0.006844 0.1351 -0.0758 0.0741 -0.327 0.1242 0.07983
-0.02103 0.1998 -0.356 -0.1885 -0.04517 0.2212 -0.2026 0.2052
-0.1549 -0.009476 0.1934 0.1708 -0.09344 0.2524 0.10046 -0.01
-0.0314 -0.08014 -0.002232 0.0731 0.1693 -0.2213 -0.1648 -0.01971
0.07605 0.1624 -0.02965 0.0981 -0.1886 -0.0932 0.1344 -0.2488
0.0397 -0.11304 -0.2101 0.0678 0.03192 -0.0879 0.1952 0.1194
-0.09033 0.1298 -0.02184 -0.2502 0.2268 0.2406 0.04663 0.0886
-0.1004 -0.1853 -0.1257 0.1575 0.2603 -0.0691 -0.03833 0.05182
-0.000786 -0.2085 0.02713 0.0651 -0.0778 -0.2068 -0.2286 0.1567
-0.04462 -0.07025 -0.0955 -0.002243 -0.04135 -0.2192 0.06396 0.03687
00000000: 30a8 4faf 85b1 a030 2a31 0bae b330 441d
00000010: 49ac d9ae 3535 baad 33a9 8834 a432 c032
00000020: 6f34 3b33 d5a8 0d2a fc28 a231 ee31 ac32
00000030: 4532 b52c 95b1 9aaf 17a2 5e32 dc22 adae
00000040: efb1 a127 b9ac 8426 42ae 1335 7e32 45b2
00000050: 95b2 efaf 0eab b22f 38b0 36a2 0728 a8ab
00000060: 58ad 0fa4 1db1 242b 7832 d133 6c2d 4c2b
00000070: d630 f5a9 2a34 fc30 c434 45b1 e2ad 1db3
00000080: de2e 28b4 a4a6 8b2b cdb1 322d 3732 cab1
00000090: 83ae 12a5 a5ad 6429 082d 0b2d 3720 cb25
000000a0: 5d2c 70b0 f32f 3516 422f 5a1d 2630 4bb1
000000b0: da32 732f fc2d 1634 0120 1d31 8230 3da8
000000c0: 0433 56b2 ebad e1ae c8a3 9031 4734 ef2e
000000d0: f326 f620 8ab2 ae23 7a1e ddb3 0534 4831
000000e0: 4bad f5b0 c524 dea0 5bb2 9cae 88af c32a
000000f0: 1b34 c6a8 dbb2 3d32 18b3 c9ad 6f12 0533
00000100: 5020 efb2 4f2e d2b2 b5a3 1eb3 3a1f fbb2
00000110: 902c 1daf bfae 26ad a8ac fb30 53a8 b7af
00000120: e9a4 2821 67a8 56b0 c133 25a7 e0b0 16b5
00000130: bf2b 0a22 2a32 07a9 f3a1 b02c db30 5b31
00000140: 6b2f b7b1 8133 732e 41ae 62a1 73a9 c4a6
00000150: 192e 3f30 bdad 8cae ccb1 b1b3 9332 a933
00000160: acac 021f 5330 daac be2c 3bb5 f32f 1c2d
00000170: 62a5 6532 b2b5 08b2 c8a9 1433 7cb2 9132
00000180: f5b0 daa0 3032 7731 fbad 0a34 6e2e 1fa1
00000190: 05a8 21ad 9298 ae2c 6b31 15b3 46b1 0ca5
000001a0: de2c 3231 97a7 472e 09b2 f7ad 4d30 f6b3
000001b0: 1529 3caf b9b2 572c 1628 a0ad 3f32 a42f
000001c0: c8ad 2730 97a5 01b4 4233 b333 f829 ac2d
000001d0: 6dae eeb1 06b0 0a31 2a34 6cac e8a8 a22a
000001e0: 7092 acb2 f226 2b2c fbac 9eb2 51b3 0431
000001f0: b6a9 7fac 1dae 9898 4ba9 04b3 182c b828

arith.constant51 f2 [24, 48]
0.02063 -0.05844 -0.268 -0.03683 -0.096 0.03735 -0.1741 0.1292
-0.0915 0.2385 0.1837 0.2283 -0.07275 0.2399 -0.1732 0.06604
0.05692 0.1865 -0.1641 -0.03238 0.057 0.03296 -0.116 0.03452
-0.2607 0.324 -0.01978 -0.0051 -0.11957 -0.311 0.4238 0.3071
-0.06183 -0.2166 -0.1566 -0.1398 0.1771 -0.01767 -0.09296 0.10345
-0.01248 0.1357 0.001147 -0.02171 0.2267 0.4216 0.3032 0.3748
0.00352 0.344 0.3906 -0.3125 0.2386 -0.01912 -0.01984 -0.3398
0.08673 -0.149 -0.0328 0.0918 -0.2534 -0.132 -0.1278 -0.362
-0.2988 -0.07166 0.11456 -0.268 -0.2444 0.152 0.3513 -0.01857
0.424 -0.276 0.0766 0.3718 0.0968 0.4087 0.077 0.2107
0.10956 0.369 0.2246 0.343 -0.223 0.438 -0.2075 0.0256
0.3586 0.423 0.293 0.2327 0.03726 -0.2515 0.0393 0.164
0.003967 -0.05356 -0.03442 0.03494 -0.08057 0.4036 -0.1449 0.2421
-0.04996 -0.1444 -0.3108 0.1992 -0.1278 -0.01566 -0.1238 0.2537
-0.03119 -0.1436 -0.1898 0.2047 -0.1155 -0.2429 -0.1631 0.3171
-0.1627 0.11505 0.2505 0.00153 -0.1699 -0.1531 0.11 0.1371
0.1257 -0.0567 -0.2551 -0.04657 0.1787 -0.1613 0.3975 0.4033
0.1486 0.06152 -0.0682 0.2532 0.2515 0.174 0.0401 -0.001394
0.3174 0.0625 -0.1914 -0.09644 -0.2268 0.03888 -0.01279 0.3499
-0.1493 0.02864 -0.0729 -0.09174 -0.1411 0.2007 0.2291 -0.0784
0.3127 -0.06058 0.1261 0.4534 0.1693 -0.255 0.06635 -0.0529
-0.2424 0.3809 -0.06555 -0.1586 -0.0297 -0.1493 -0.1292 0.004333
0.2065 0.02278 -0.2186 -0.3896 0.3716 0.1145 0.3457 -0.1466
-0.1405 -0.3044 -0.2273 0.238 0.2239 -0.03084 -0.02538 -0.1274
0.2576 -0.276 -0.08636 -0.311 0.02406 0.09705 0.1342 -0.2057
-0.2485 0.2003 -0.1743 0.0507 -0.0787 0.2605 0.1598 0.198
0.1179 -0.2214 0.1052 0.438 -0.03876 0.00891 -0.0404 0.3599
-0.0774 0.2715 -0.1804 -0.255 -0.1957 -0.312 0.1377 0.1454
-0.2717 -0.007607 -0.2045 -0.307 0.2473 0.02008 -0.1243 0.0533
0.0646 0.05057 0.09937 0.0756 -0.06274 0.1797 -0.1378 0.273
0.02164 -0.2964 -0.2937 0.245 -0.2356 0.3818 0.2206 0.01608
0.0629 -0.034 0.0923 0.1686 0.3352 0.03903 0.3064 0.31
00000000: 4825 7bab 4ab4 b7a8 25ae c828 92b1 2230
00000010: dbad a233 e131 4e33 a8ac ad33 8bb1 3a2c
00000020: 492b f831 40b1 25a8 4c2b 3828 6daf 6b28
00000030: 2cb4 2f35 10a5 399d a7af fab4 c836 ea34
00000040: eaab eeb2 03b1 79b0 ab31 86a4 f3ad 9f2e
00000050: 64a2 5830 b314 8fa5 4133 bf36 da34 ff35
00000060: 351b 8135 4036 00b5 a333 e5a4 14a5 70b5
00000070: 8d2d c5b0 33a8 e02d 0eb4 39b0 17b0 cbb5
00000080: c8b4 96ac 552f 4ab4 d2b3 dd30 9f35 c1a4
00000090: c936 6ab4 e72c f335 322e 8a36 ee2c be32
000000a0: 032f e735 3033 7d35 23b3 0237 a4b2 8e26
000000b0: bd35 c536 b034 7233 c528 06b4 0829 3f31
000000c0: 101c dbaa 68a8 7928 28ad 7536 a3b0 bf33
000000d0: 65aa 9fb0 f9b4 6032 17b0 02a4 ecaf 0f34
000000e0: fca7 98b0 13b2 8d32 64af c6b3 38b1 1335
000000f0: 35b1 5d2f 0234 4416 70b1 e6b0 0a2f 6330
00000100: 0630 42ab 15b4 f6a9 b831 29b1 5c36 7436
00000110: c130 e02b 5dac 0d34 0634 9131 2229 b695
00000120: 1435 002c 20b2 2cae 42b3 fa28 8ca2 9935
00000130: c7b0 5527 aaac dfad 84b0 6c32 5533 05ad
00000140: 0135 c1ab 0930 4137 6b31 14b4 3f2c c5aa
00000150: c2b3 1836 32ac 13b1 9aa7 c7b0 22b0 701c
00000160: 9c32 d525 ffb2 3cb6 f235 542f 8835 b1b0
00000170: 7fb0 dfb4 46b3 9e33 2a33 e5a7 7fa6 14b0
00000180: 1f34 6ab4 87ad fab4 2926 362e 4b30 95b2
00000190: f4b3 6932 94b1 7d2a 09ad 2b34 1d31 5632
000001a0: 8c2f 16b3 bc2e 0237 f6a8 9020 2ca9 c235
000001b0: f4ac 5834 c6b1 14b4 43b2 feb4 6830 a730
000001c0: 59b4 ca9f 8bb2 e9b4 ea33 2425 f5af d32a
000001d0: 222c 792a 5c2e d72c 04ac c031 69b0 5e34
000001e0: 8a25 beb4 b3b4 d733 8ab3 1c36 0f33 1e24
000001f0: 072c 5aa8 e82d 6531 5d35 ff28 e734 f634

arith.constant52 f2 [1, 24]
-0.1951 0.1908 -0.4087 -0.501 -0.432 -0.3586 0.4683 -0.262
-0.3025 0.533 -0.5166 -0.4214 0.2422 0.4065 -0.609 -0.328
0.4263 0.3306 0.3433 -0.3767 0.3982 -0.2773 -0.4636 0.3154
00000000: 3eb2 1b32 8ab6 02b8 e9b6 bdb5 7e37 31b4
00000010: d7b4 4438 22b8 beb6 c033 8136 dfb8 3fb5
00000020: d236 4a35 7e35 07b6 5f36 70b4 6bb7 0c35

arith.constant57 f2 [32]
-0.06046 -0.01752 -0.03506 -0.04373 -0.00999 -0.0401 0.003216 0.05045
0.0 0.03314 -0.05215 0.0251 -0.04456 -0.04788 -0.0162 0.02489
0.02904 0.0 0.0 -0.05783 0.001131 -0.03546 -0.007347 -0.01689
0.06122 0.02022 -0.03818 0.0 -0.05392 0.0 0.0 0.0
00000000: bdab 7ca4 7da8 99a9 1da1 22a9 961a 752a
00000010: 0000 3e28 adaa 6d26 b4a9 21aa 26a4 5f26
00000020: 6f27 0000 0000 67ab a214 8aa8 869f 53a4
00000030: d62b 2d25 e3a8 0000 e7aa 0000 0000 0000

arith.constant58 f2 [32]
-0.002235 0.006393 -0.01233 0.0 -0.01767 -0.02095 -0.01706 -0.00307
-0.007183 -0.00663 -0.002567 -0.00725 -0.009865 -0.01855 0.0136 -0.01968
-0.0232 -0.0056 -0.01073 -0.0125 -0.01698 -0.01042 -0.02026 -0.0455
0.0167 -0.00963 -0.009186 -0.0006633 -0.01851 -0.01453 -0.0328 -0.01842
00000000: 9498 8c1e 50a2 0000 86a4 5da5 5ea4 4a9a
00000010: 5b9f ca9e 4299 6d9f 0da1 c0a4 f722 0aa5
00000020: f0a5 bc9d 7ea1 66a2 59a4 56a1 30a5 d3a9
00000030: 4624 eea0 b4a0 6f91 bda4 70a3 33a8 b7a4

arith.constant59 f2 [48]
0.013626 0.04263 0.0151 -0.01501 -0.009445 -0.00727 -0.0491 0.06335
-0.0417 0.01327 -0.04248 -0.03326 -0.01746 -0.046 -0.04523 -0.03613
0.06067 -0.0638 -0.03333 -0.04727 0.02022 -0.01703 -0.02449 0.04596
-0.044 -0.02086 -0.05396 0.02531 -0.05328 0.01061 -0.0327 -0.0193
-0.05933 0.00852 -0.01573 0.00818 0.02275 -0.07654 0.00626 -0.0199
-0.005512 -0.00944 -0.0791 0.01817 -0.002796 -0.0355 -0.02753 -0.04477
00000000: fa22 7529 bb23 afa3 d6a0 729f 49aa 0e2c
00000010: 56a9 cb22 70a9 42a8 78a4 e3a9 caa9 a0a8
00000020: c42b 15ac 44a8 0daa 2d25 5ca4 45a6 e229
00000030: a2a9 57a5 e8aa 7b26 d2aa 6f21 30a8 f1a4
00000040: 98ab 5d20 07a4 3020 d325 e6ac 691e 18a5
00000050: a59d d5a0 10ad a724 ba99 8ba8 0ca7 bba9

arith.constant60 f2 [24]
0.04984 0.09174 0.03232 0.01205 0.02766 0.03513 0.04465 0.0779
0.0703 0.0678 0.005642 0.05423 0.107 0.0632 0.04822 0.02516
0.0413 0.06088 0.0829 0.04214 0.07935 0.02701 -0.0002704 -0.02089
00000000: 612a df2d 2328 2b22 1527 7f28 b729 fc2c
00000010: 802c 572c c71d f12a d92e 0b2c 2c2a 7126
00000020: 4929 cb2b 4e2d 6529 142d ea26 6e8c 59a5

arith.constant61 f2 [64, 1, 3, 2]
0.3176 -2.793 -1.122 0.564 1.275 0.8896 -0.785 0.8066
-0.854 -0.02452 0.663 0.1318 0.2449 0.418 0.0974 -0.831
1.133 0.05972 0.519 1.461 -0.774 1.897 0.5547 -1.454
-0.08325 -1.303 1.382 -1.534 -0.4116 -1.589 -0.03156 0.5254
-0.806 -0.852 -0.519 -0.6216 -1.362 -2.596 0.489 -1.328
0.0653 1.35 -0.8657 -2.121 -0.776 -1.449 0.759 1.342
0.934 0.642 0.4092 0.512 0.0767 1.621 0.1428 -0.729
0.7085 -0.708 0.5957 -1.505 -0.739 1.075 -0.62 -0.666
1.616 -1.224 -1.46 2.46 2.264 1.308 0.452 -0.3318
-0.733 -1.059 -0.02673 -2.432 -0.559 -0.516 -0.51 -0.7183
1.329 0.6426 -1.518 -0.279 0.9385 1.959 0.2266 -1.216
0.4395 -3.092 0.1844 -1.162 0.2795 0.27 -0.6816 -0.963
-0.5176 -0.739 -1.22 0.03604 0.514 -0.331 -0.64 0.5293
-0.2102 -0.32 1.597 -0.926 0.5747 0.573 0.4434 3.36
-0.5654 2.045 1.306 -0.1494 0.453 0.482 -1.589 0.399
-1.048 -1.28 0.26 -1.591 -0.568 -1.328 -1.696 1.466
1.615 2.596 -0.9893 0.1101 0.3618 -1.38 0.1006 0.2496
1.209 0.92 -0.434 0.291 0.5425 -0.6743 1.011 0.3718
0.7246 1.357 0.5356 -1.933 -1.192 -1.147 1.11 0.936
-0.61 0.854 1.096 -1.256 -0.01332 1.438 -0.949 0.776
-0.4739 -0.3762 -1.024 0.315 0.01375 -1.064 0.7104 0.4353
2.145 -0.564 -1.08 -0.317 -1.028 0.2444 -0.8696 -0.7837
0.3037 -0.02446 0.0789 -1.323 1.638 1.04 -0.7817 1.645
0.2079 -0.4512 -1.112 0.12177 1.065 -1.341 -1.515 -1.359
-1.668 1.771 1.853 -0.4343 0.331 -1.035 -0.12134 1.162
1.745 1.765 -0.519 -1.492 -1.182 -0.7334 2.316 -0.1113
-1.783 0.01926 -0.844 -0.766 -0.6665 -0.637 0.3704 -0.9336
0.744 0.9917 0.9136 -1.071 -0.0477 -0.54 0.8633 -1.01
-1.181 -1.018 1.496 -1.472 0.293 -1.161 0.8184 -0.6816
0.537 -0.1895 1.222 -0.2793 0.03543 -0.8853 0.608 -0.8823
-1.672 2.184 0.865 1.894 -0.0736 -1.696 -0.48 -0.689
1.806 -1.188 -0.6987 1.051 0.434 -1.205 -0.2173 -0.0714
00000000: 1535 96c1 7dbc 8338 1a3d 1e3b 48ba 743a
00000010: d5ba 47a6 4e39 3830 d633 b036 3c2e a6ba
00000020: 883c a52b 2738 d83d 31ba 973f 7038 d1bd
00000030: 54ad 36bd 873d 23be 96b6 5bbe 0aa8 3438
00000040: 73ba d1ba 27b8 f9b8 73bd 31c1 d337 50bd
00000050: 2e2c 663d edba 3ec0 35ba ccbd 123a 5e3d
00000060: 793b 2339 8c36 1938 e92c 7c3e 9230 d5b9
00000070: ab39 aab9 c438 05be e9b9 4d3c f6b8 54b9
00000080: 773e e5bc d7bd ec40 8740 3b3d 3b37 4fb5
00000090: ddb9 3cbc d8a6 ddc0 79b8 21b8 14b8 bfb9
000000a0: 513d 2439 12be 77b4 823b d63f 4033 ddbc
000000b0: 0837 2fc2 e731 a6bc 7934 5234 74b9 b4bb
000000c0: 24b8 e9b9 e1bc 9d28 1d38 4cb5 1fb9 3c38
000000d0: bab2 1fb5 633e 68bb 9938 9638 1837 b842
000000e0: 86b8 1740 393d c8b0 3f37 b637 5bbe 6236
000000f0: 31bc 1fbd 2934 5dbe 8bb8 50bd c9be dd3d
00000100: 763e 3141 eabb 0c2f ca35 85bd 702e fd33
00000110: d63c 5c3b f2b6 a834 5738 65b9 0b3c f335
00000120: cc39 6e3d 4938 bbbf c5bc 97bc 713c 7d3b
00000130: e1b8 d53a 623c 06bd d2a2 c13d 98bb 353a
00000140: 95b7 05b6 19bc 0a35 0a23 42bc af39 f736
00000150: 4a40 83b8 52bc 12b5 1dbc d233 f5ba 45ba
00000160: dc34 43a6 0d2d 4bbd 8d3e 293c 41ba 943e
00000170: a732 38b7 73bc cb2f 433c 5dbd 0fbe 70bd
00000180: acbe 163f 693f f3b6 4c35 24bc c4af a63c
00000190: fb3e 0f3f 27b8 f8bd babc deb9 a240 20af
000001a0: 22bf ee24 c1ba 21ba 55b9 19b9 ed35 78bb
000001b0: f439 ef3b 4f3b 49bc 1baa 52b8 e83a 0abc
000001c0: b9bc 12bc fc3d e3bd b034 a5bc 8c3a 74b9
000001d0: 4c38 10b2 e33c 78b4 8928 15bb dd38 0fbb
000001e0: b0be 5e40 ec3a 933f b6ac c9be aeb7 83b9
000001f0: 393f c1bc 97b9 343c f236 d2bc f4b2 92ac

arith.constant62 f2 [64, 1, 5, 64]
0.005806 -0.1086 0.243 -0.1906 -0.0878 -0.1442 -0.258 -0.01866
0.1625 -0.0915 0.2268 0.1705 0.1045 0.05685 -0.02931 -0.1797
0.0787 -0.0796 0.1772 -0.09973 0.1676 -0.00644 -0.0393 0.0809
-0.1676 -0.1608 0.0745 -0.1396 -0.131 0.05908 -0.1537 -0.1329
-0.0744 -0.1802 0.1235 -0.1458 -0.0222 -0.1455 -0.02097 0.04565
-0.1636 -0.2062 0.1881 0.0974 0.03992 -0.001947 0.04657 -0.12225
-0.0282 -0.2279 -0.04367 0.1211 0.01826 -0.09674 0.04068 0.00821
0.06335 -0.05276 -0.1482 -0.2212 -0.092 -0.06744 0.04865 0.1132
-0.1542 0.1265 0.08905 -0.1299 -0.00852 -0.1263 0.1285 -0.0675
0.1741 0.1433 0.09784 0.06046 0.02554 0.01868 -0.0752 -0.01186
0.12024 -0.2534 0.2089 0.0723 -0.06192 0.007755 -0.10675 -0.2031
-0.201 0.07104 0.10516 -0.06 0.1053 0.0474 0.1382 -0.1882
0.11816 -0.1356 -0.2045 0.03476 0.12366 -0.02986 0.0214 -0.1476
-0.11456 -0.1722 -0.1993 -0.02989 0.096 0.00892 -0.1707 0.11163
0.06165 0.12006 -0.0919 -0.05942 -0.05258 0.0929 0.144 -0.00986
0.02748 -0.07904 -0.175 0.137 0.03397 -0.0952 -0.1772 0.13
-0.168 -0.1201 0.2676 0.1324 0.02052 0.0515 -0.02444 0.002052
-0.2076 -0.10065 -0.014854 0.054 0.03253 0.00965 0.1337 -0.0119
0.10065 0.1793 -0.0941 0.1776 -0.1311 0.1337 0.08673 -0.1688
-0.04355 0.2761 0.00053 0.08514 0.08154 0.09717 0.08923 0.02199
0.0725 0.1571 -0.04944 0.082 0.1844 0.0989 0.07635 -0.1335
-0.05917 0.1433 -0.1971 -0.2756 -0.005623 -0.2047 -0.0726 0.0906
-0.1744 0.1926 -0.196 0.09784 0.0854 0.05496 0.07227 -0.2367
-0.04364 -0.005684 0.01299 -0.2351 -0.03464 -0.02736 -0.10016 -0.02005
0.1931 0.01241 -0.2117 -0.1619 0.0683 -0.1245 -0.1671 -0.2632
0.06046 0.1978 -0.1259 -0.0973 0.1262 -0.0796 -0.01528 0.0784
0.03613 -0.044 -0.04395 0.0363 -0.065 -0.1807 -0.1467 -0.0984
0.2397 -0.04758 -0.10364 0.1241 0.2305 0.006794 0.00938 0.116
0.0263 -0.2617 -0.10724 0.1134 0.1613 -0.1764 -0.06055 0.04633
0.1114 0.10974 -0.04074 0.0343 -0.03394 0.1691 0.1427 -0.1791
0.01015 -0.0852 -0.1506 -0.2073 -0.06714 -0.04095 0.01195 0.1709
-0.2491 0.14 -0.1064 0.1382 -0.1161 -0.0662 -0.1375 0.1354
00000000: f21d f3ae c733 19b2 9fad 9db0 21b4 c7a4
00000010: 3331 dbad 4233 7531 b02e 472b 81a7 c0b1
00000020: 092d 18ad ac31 62ae 5d31 989e 08a9 2d2d
00000030: 5db1 25b1 c52c 78b0 31b0 902b ebb0 41b0
00000040: c3ac c4b1 e72f aab0 afa5 a8b0 5ea5 d829
00000050: 3cb1 99b2 0532 3c2e 1c29 fa97 f629 d3af
00000060: 38a7 4bb3 97a9 c02f ad24 31ae 3529 3420
00000070: 0e2c c1aa beb0 14b3 e3ad 51ac 3a2a 3f2f
00000080: efb0 0c30 b32d 28b0 5da0 0bb0 1d30 52ac
00000090: 9231 9630 432e bd2b 8a26 c824 d0ac 13a2
000000a0: b22f 0eb4 af32 a12c edab f11f d5ae 80b2
000000b0: 6fb2 8c2c bb2e aeab bd2e 112a 6c30 06b2
000000c0: 902f 57b0 8bb2 7328 ea2f a5a7 7a25 b9b0
000000d0: 55af 83b1 61b2 a7a7 252e 9120 76b1 252f
000000e0: e42b af2f e2ad 9bab bbaa f22d 9c30 0ca1
000000f0: 0927 0fad 9ab1 6230 5928 18ae acb1 2930
00000100: 60b1 b0af 4834 3d30 4125 982a 42a6 3418
00000110: a5b2 71ae 9ba3 e92a 2a28 f120 4730 18a2
00000120: 712e bd31 06ae af31 32b0 4730 8d2d 67b1
00000130: 93a9 6b34 5710 732d 382d 382e b62d a125
00000140: a42c 0731 54aa 3f2d e731 542e e32c 46b0
00000150: 93ab 9630 4fb2 69b4 c29d 8db2 a5ac cc2d
00000160: 95b1 2a32 46b2 432e 772d 092b a02c 93b3
00000170: 96a9 d29d a722 86b3 6fa8 01a7 69ae 22a5
00000180: 2e32 5b22 c6b2 2eb1 5f2c f8af 59b1 36b4
00000190: bd2b 5432 07b0 3aae 0a30 18ad d3a3 052d
000001a0: a028 a2a9 a0a9 a528 29ac c8b1 b2b0 4cae
000001b0: ac33 17aa a2ae f12f 6033 f51e cd20 6d2f
000001c0: bc26 30b4 ddae 422f 2931 a5b1 c0ab ee29
000001d0: 212f 062f 37a9 6428 58a8 6931 9130 bbb1
000001e0: 3221 74ad d2b0 a2b2 4cac 3ea9 1e22 7831
000001f0: f9b3 7b30 cfae 6c30 6eaf 3dac 66b0 5530

arith.constant63 f2 [128, 1, 3, 64]
0.1646 -0.2037 -0.4685 -0.1637 0.0979 -0.2383 -0.2385 -0.1835
0.00121 -0.04602 0.267 0.0157 -0.0365 -0.0347 -0.2212 0.4895
-0.1295 0.0676 -0.0421 -0.1262 0.1182 -0.2039 -0.1162 0.1517
-0.331 -0.1454 -0.2273 0.03424 0.00706 -0.0522 0.1318 0.1996
-0.1211 0.3657 -0.2301 -0.01935 -0.0132 0.05508 -0.02571 -0.1648
-0.10126 0.1022 0.161 -0.4172 -0.07544 -0.03348 -0.2627 -0.014565
-0.1641 -0.01566 -0.2087 -0.32 0.2008 0.2878 -0.0963 -0.2103
-0.4048 -0.1962 -0.2505 -0.2367 0.335 -0.06635 0.3042 -0.03845
0.02249 -0.1487 -0.2708 0.06976 0.09326 -0.1843 -0.0626 -0.3342
-0.277 0.1302 0.1829 0.2101 -0.203 0.1119 -0.0911 0.02199
-0.03128 -0.0521 0.05246 -0.0269 -0.11285 -0.119 0.2025 -0.0473
-0.1823 0.05756 -0.2664 0.0724 0.04724 -0.11615 0.2397 0.32
0.2559 -0.08813 0.036 0.1428 0.02986 -0.005016 -0.2795 0.1065
0.1638 0.03876 0.113 -0.3613 0.02403 0.0656 0.3057 0.07495
-0.2368 -0.004147 -0.21 -0.1841 -0.1772 0.1134 0.1263 -0.3096
-0.2047 0.2288 -0.1725 0.162 -0.2484 0.2598 0.255 -0.2888
0.05408 -0.02751 -0.2253 -0.2222 0.1934 0.03632 -0.2007 -0.0261
0.025 0.002035 0.3142 -0.0815 0.1071 -0.2057 -0.2405 0.05737
-0.1709 -0.2656 -0.1143 -0.05017 -0.4072 -0.12463 0.2905 -0.01913
-0.0502 -0.03528 -0.173 -0.2177 -0.256 -0.0711 -0.2705 -0.00438
0.0234 -0.09076 -0.4712 0.1906 0.04303 -0.07135 0.2195 -0.06155
0.05408 0.1565 -0.2113 -0.4124 -0.019 -0.2299 -0.00392 0.2462
-0.06714 -0.0815 0.1588 0.1407 -0.04282 -0.1655 -0.0321 -0.4133
0.0558 0.1549 -0.003082 0.004383 -0.005245 0.257 0.4404 -0.06757
-0.1215 0.2517 -0.04596 -0.09064 -0.02307 0.00816 -0.1742 -0.1213
-0.119 -0.08905 0.1791 -0.2494 -0.003925 -0.1461 -0.3364 -0.0946
-0.1339 -0.06506 -0.2783 -0.13 -0.011314 -0.1004 0.014 -0.1035
-0.00098 0.1179 -0.1509 0.09216 -0.1951 -0.151 -0.001745 0.316
0.1882 0.1323 0.1265 -0.1892 0.085 0.09875 -0.08435 -0.2566
0.1908 -0.1777 0.1486 0.1396 -0.0708 -0.222 0.09985 0.03104
-0.1982 0.0215 -0.1923 0.1365 0.01398 -0.04144 -0.05392 0.02946
0.007046 -0.09515 -0.004406 -0.0749 0.04828 0.11096 -0.07806 -0.0168
00000000: 4431 85b2 7fb7 3db1 442e a0b3 a2b3 dfb1
00000010: f514 e4a9 4634 0524 aca8 71a8 14b3 d537
00000020: 25b0 542c 64a9 0ab0 912f 86b2 70af db30
00000030: 4cb5 a7b0 46b3 6228 3b1f aeaa 3830 6332
00000040: c0af da35 5db3 f4a4 c2a2 0d2b 95a6 46b1
00000050: 7bae 8a2e 2731 adb6 d4ac 49a8 34b4 75a3
00000060: 40b1 02a4 aeb2 1fb5 6d32 9b34 2aae bbb2
00000070: 7ab6 47b2 02b4 93b3 5c35 3fac de34 eca8
00000080: c225 c2b0 55b4 772c f82d e6b1 02ac 59b5
00000090: 6fb4 2b30 da31 b932 7fb2 292f d5ad a125
000000a0: 01a8 abaa b72a e3a6 39af 9eaf 7b32 0eaa
000000b0: d5b1 5e2b 43b4 a22c 0c2a 6faf ac33 1f35
000000c0: 1834 a4ad 9c28 9230 a527 239d 79b4 d12e
000000d0: 3e31 f628 3b2f c8b5 2726 332c e434 cc2c
000000e0: 94b3 3f9c b8b2 e4b1 acb1 422f 0b30 f4b4
000000f0: 8db2 5233 85b1 2f31 f3b3 2834 1434 9fb4
00000100: ec2a 0ba7 36b3 1cb3 3032 a628 6cb2 aea6
00000110: 6626 2b18 0735 37ad db2e 95b2 b2b3 582b
00000120: 78b1 40b4 51af 6caa 84b6 faaf a634 e6a4
00000130: 6daa 84a8 89b1 f7b2 19b4 8dac 54b4 7c9c
00000140: fe25 cfad 8ab7 1932 8229 91ac 0633 e1ab
00000150: ec2a 0231 c3b2 99b6 dda4 5bb3 049c e133
00000160: 4cac 37ad 1531 8130 7ba9 4cb1 1ca8 9db6
00000170: 242b f530 509a 7d1c 5f9d 1d34 0c37 53ac
00000180: c7af 0734 e2a9 cdad e8a5 2e20 93b1 c3af
00000190: 9eaf b3ad bb31 fbb3 059c adb0 62b5 0eae
000001a0: 49b0 2aac 74b4 29b0 cba1 6dae 2b23 a0ae
000001b0: 0494 8c2f d4b0 e62d 3eb2 d5b0 2697 0e35
000001c0: 0632 3c30 0c30 0eb2 712d 522e 66ad 1bb4
000001d0: 1b32 b0b1 c130 7830 88ac 1bb3 642e f227
000001e0: 58b2 8125 27b2 5e30 2823 4ea9 e7aa 8b27
000001f0: 371f 17ae 839c cbac 2e2a 1a2f ffac 4da4

arith.constant64 f2 [64]
0.2416 -0.5103 0.5234 0.04745 0.3052 -0.6953 -0.3252 -0.3057
0.49 0.5522 0.1967 0.5273 -0.5723 -0.317 0.606 -0.2323
-0.6807 0.3171 0.1569 0.02736 -0.75 -0.3655 0.6367 0.3816
0.02211 0.585 -0.776 -0.3152 -0.02235 -0.421 0.424 -0.726
0.2039 0.501 -0.3376 -0.5894 0.64 0.47 0.621 0.6597
-0.442 0.264 0.4282 -0.186 -0.1095 0.2703 -0.565 -0.235
-0.5312 0.561 0.2817 0.2455 -0.6177 0.4312 -0.0996 0.4446
-0.1974 0.5396 -0.7026 0.1605 0.6577 0.03732 -0.5156 0.65
00000000: bb33 15b8 3038 132a e234 90b9 34b5 e4b4
00000010: d737 6b38 4b32 3838 94b8 12b5 d938 6fb3
00000020: 72b9 1335 0531 0127 00ba d9b5 1839 1b36
00000030: a925 ae38 35ba 0bb5 b9a5 bcb6 c936 cfb9
00000040: 8632 0238 67b5 b7b8 1f39 8537 f838 4739
00000050: 12b7 3934 da36 f4b1 02af 5334 85b8 85b3
00000060: 40b8 7d38 8234 db33 f1b8 e636 60ae 1d37
00000070: 51b2 5138 9fb9 2331 4339 c728 20b8 3339

arith.constant65 f2 [64]
1.059 1.676 1.705 -1.968 -0.694 -1.864 0.5635 2.484
0.9067 0.10913 -0.674 0.7827 0.3123 0.0806 -2.168 1.102
1.536 1.658 -1.6 0.7075 1.485 -0.673 -2.102 -3.342
0.836 -0.1661 0.151 0.671 0.1486 -0.3638 -2.219 0.1654
0.4497 0.4907 -0.9375 -0.713 0.4453 1.888 0.2197 -1.323
0.8374 1.272 -0.3784 3.691 -0.09705 2.453 0.04367 1.824
-0.9004 0.2876 1.235 1.982 1.237 -1.678 -0.8423 1.63
-0.304 0.5234 1.149 0.1832 -0.3352 -0.9507 2.271 1.92
00000000: 3c3c b43e d23e dfbf 8db9 75bf 8238 f840
00000010: 413b fc2e 64b9 433a ff34 292d 56c0 683c
00000020: 253e a23e 66be a939 f13d 62b9 34c0 afc2
00000030: b03a 51b1 d530 5e39 c130 d2b5 70c0 4b31
00000040: 3237 da37 80bb b4b9 2037 8d3f 0833 4bbd
00000050: b33a 173d 0eb6 6243 36ae e840 9729 4c3f
00000060: 34bb 9a34 f13c ee3f f33c b6be bdba 853e
00000070: ddb4 3038 993c dd31 5db5 9bbb 8b40 ae3f

arith.constant66 f2 [128]
2.277 0.965 1.026 0.2585 0.1439 1.103 0.10815 0.4402
-1.243 0.5757 -0.356 -2.605 1.283 -0.7915 0.548 0.7603
-0.0744 0.1432 1.223 1.482 0.4626 -0.9697 1.278 0.4368
0.883 -1.483 1.974 1.145 -0.1804 -1.276 1.948 0.299
-0.0651 -0.4175 1.719 0.02425 -0.1354 -0.934 -1.5205 -0.03134
1.775 0.8354 -2.805 -0.848 0.05566 0.8984 0.4714 0.4824
0.0571 0.907 -0.0999 0.473 -1.465 2.162 1.198 0.4473
-3.479 -0.5186 -0.5503 1.156 0.4749 1.246 -0.6694 0.6226
1.5625 -1.653 -0.2395 -0.642 -1.458 1.936 0.809 0.297
-1.538 -1.187 0.3718 -1.585 1.576 0.7773 -0.4312 2.66
-1.137 0.1792 -0.51 -2.217 -0.2139 -0.501 1.151 -0.8633
-1.616 -0.7783 0.725 -0.793 0.06824 -1.066 -1.724 -1.696
-0.2323 -0.6675 0.02695 -0.5034 1.032 -1.871 1.209 -0.0358
1.671 -1.014 1.368 -0.454 -1.387 -0.3767 0.1577 -1.134
0.749 0.8506 0.7495 -0.8223 2.01 -0.2151 0.3372 -2.23
-0.3835 -0.632 -0.4375 1.237 0.3184 -0.55 1.2295 0.7896
00000000: 8e40 b83b 1b3c 2334 9b30 693c ec2e 0b37
00000010: f9bc 9b38 b2b5 36c1 223d 55ba 6238 153a
00000020: c3ac 9530 e43c ee3d 6737 c2bb 1d3d fd36
00000030: 103b efbd e53f 943c c6b1 1bbd cb3f c934
00000040: 2bac aeb6 e03e 3526 55b0 79bb 15be 03a8
00000050: 1a3f af3a 9cc1 c9ba 202b 303b 8b37 b837
00000060: 4f2b 423b 65ae 9137 dcbd 5340 cb3c 2837
00000070: f5c2 26b8 67b8 a03c 9937 fc3c 5bb9 fb38
00000080: 403e 9dbe aab3 23b9 d5bd be3f 793a c134
00000090: 27be bfbc f335 57be 4e3e 383a e6b6 5241
000000a0: 8cbc bc31 14b8 6fc0 d8b2 02b8 9b3c e8ba
000000b0: 77be 3aba cd39 58ba 5e2c 44bc e5be c9be
000000c0: 6fb3 57b9 e626 07b8 213c 7cbf d63c 95a8
000000d0: af3e 0ebc 793d 44b7 8cbd 07b6 0c31 89bc
000000e0: fe39 ce3a ff39 94ba 0540 e2b2 6535 76c0
000000f0: 23b6 0eb9 00b7 f33c 1835 66b8 eb3c 513a
